model_checkpoints/model_ep_250.pth (torch, 83135 bytes, 6 tensors)

fc1.weight f4 [128, 7]
00000000: 8073 39bb 6e9f 4f3e 1e46 9fbe d46a 8ebe
00000010: 8611 15be a892 cf3d 8063 f5bb 13bd 063f
00000020: f217 093f 9d0c 5d3f 7335 293f 34f2 123f
00000030: b42b 583d 875f 8ebe 1e9f acbd 48fd e0be
00000040: 01d6 8bbe a49e 313e 0b79 ba3d 696a b13e
00000050: 811d c93e 28cd fa3e f8c7 af3e 6b70 683f
00000060: bf4b 1e3f f967 333f 3e6a 4c3f f2b8 9abe
00000070: 10be f03c 52c0 26bf c93a 1dbf 74fb 29be
00000080: fd1b 133c b6cc b23d a1dd 4e3d 88ee bebd
00000090: 0e0d 0ebf a70f 4dbd 1874 833e a2b9 1d3f
000000a0: 2aeb 073f f685 b53d c1b6 ae3d ff8a d5bd
000000b0: f19f 9abe c427 c7be 038a 1ebf bf1a 42bf
000000c0: 58ba 3abf 04a9 a63b 5021 fa3e 65bd a53e
000000d0: 8a1a 95bd 4e43 7abf b46c 76bf 7721 68bf
000000e0: cbf1 833d 56ee 953c 1b60 56be 51d3 99be
000000f0: 2bb2 2fbf 1c51 6bbf 32a7 60bf f5fb 803e
00000100: 35c3 2e3f fc5e 253f e043 473f 58fb 423f
00000110: 6777 1a3f 29d2 a73e 1f21 95be 3bd6 0dbe
00000120: de1b 183e af6e eb3e c5c6 7f3e c5b2 bc3e
00000130: 2c0d 9a3d 9c47 a8be e06a 0e3d ad21 72be
00000140: 8759 b4be be6b a93e b25f c43e 180a c1be
00000150: cfc3 913d c439 993e f77f 373d 21f1 67be
00000160: 0bb2 35bf dda9 a2bf 6f3b 10bf ecc9 ba3e
00000170: aeaf 483f 9435 593f 2ec4 c23e 82e6 c93e
00000180: 2a6f 163f f8b3 483d 2583 b9be 022c aabe
00000190: 47f2 183e 2815 573e dd8c 9bbd 766a b63d
000001a0: c278 d7be 5655 123e 0582 20bf 2b00 d2be
000001b0: c97d 96bd a8c8 6e3f b4b3 543f 50cd 6f3f
000001c0: e284 b3bd 293c ffbd d95b 74bd efd9 6dbd
000001d0: 0e14 7f3e f3f6 f03e 2dfe a93e 86a8 8b3d
000001e0: d777 0d3f 96a2 313e a4ab 4abe 73be 31bf
000001f0: 0251 b7bf 5b0a 73bf c351 193d 224c 5cbd
00000200: 3707 63be b9a1 20bf 80f4 5fbf bbda 48bf
00000210: 8d93 0dbf 09ab 4d3e 9abc 44bd a4ea 15be
00000220: 5ac8 f33b 4804 583f 6f21 863f 9027 733f
00000230: 159b 2e3f 1adf ba3f acfe ca3f eaf1 8a3f
00000240: 6f69 d83d fc43 72bd d6cb d63d 8092 20bb
00000250: e85f 40be 834b 94be a21a b5be a354 a3be
00000260: 9402 9dbd ae40 543e be44 cd3e a120 b53e
00000270: d77b 903f 83ef 163f 93d9 073f 07d7 263e
00000280: b822 17be b650 983d f89f 5cbf f9b7 83bf
00000290: bd91 63bf dd2a 16bf 5326 c5be 6433 d03e
000002a0: a3c4 8fbd 089b c4be cea2 ba3b dc07 263d
000002b0: 9b7b 493f 909f 263f c56a 55be 1f0d cc3e
000002c0: 1df0 fe3e 560d 1d3f 6d85 963f 5419 d03e
000002d0: cdfa c83e 3bc7 3abe f820 103f ca33 063e
000002e0: f834 a8bd a149 afbe 9e46 40bf a613 57be
000002f0: 6829 b7be 14a8 6d3e 8da8 103f 8a37 853e
00000300: afbe e3be 7a14 51bf 21b9 95bf 130c 40bf
00000310: d6e2 453d c880 1dbf 3886 57bf b08d 19bf
00000320: 3075 edbd 350e 933e 8b7a 28bc 33da 84be
00000330: 98bc 60be 1773 873e 3220 0bbe e73a a33e
00000340: 7af4 0b3e 0009 443d e71e 523d 164c aa3e
00000350: d131 5b3e 3673 9bbd 2546 5dbf 5d14 85bf
00000360: 234f 74bf c2f4 69be 79fc bb3e 7a0c 9dbe
00000370: 2055 debc a8b0 f73e c6cf 0b3e a054 2f3c
00000380: 7ae8 dcbd 085a cabe 622b 30bf 47c9 26be
00000390: b6bf 91bc c766 9b3e faa5 243e 050e f33e
000003a0: e741 623f a79f b13f c819 a63f fe1a c23e
000003b0: 5f62 bd3e 9fe5 e5be 6741 e3bd 9d69 ebbe
000003c0: 066a 94be a679 393e a159 7a3e ad2a 0c3f
000003d0: c682 da3e 4926 bbbe dde8 8b3e 3306 a0be
000003e0: c0b2 aa3b e89a 83bd 58d7 4bbe a09e 4c3d
000003f0: 03be f03e b058 a03e a279 d23e 7038 0e3f
-0.0028297603 0.20275661 -0.31108183 -0.27815878 -0.14557466 0.10135394 -0.007488668 0.52632254
0.5355216 0.8634737 0.6609718 0.5740082 0.052776054 -0.27807257 -0.08428787 -0.43943238
-0.2731171 0.17345673 0.09105118 0.34651497 0.39280322 0.48984647 0.34332252 0.90796536
0.6183433 0.70080525 0.7984961 -0.30219227 0.029387504 -0.6513721 -0.61417824 -0.16599828
0.008978841 0.08730452 0.05050433 -0.0932284 -0.5548867 -0.050063755 0.2567451 0.6161138
0.53093207 0.08863442 0.08530951 -0.10426902 -0.3020015 -0.38897526 -0.6192934 -0.7582206
-0.7294059 0.005086066 0.4885354 0.3237106 -0.072804525 -0.9775895 -0.9625962 -0.90676063
0.06442603 0.018302124 -0.20935099 -0.30044034 -0.6863124 -0.9192064 -0.8775512 0.25192228
0.6826661 0.6459806 0.77837944 0.7616477 0.60338444 0.32777527 -0.29126832 -0.13851254
0.1485438 0.45982882 0.24978168 0.3685514 0.075220436 -0.32867134 0.034769893 -0.23645659
-0.35224554 0.33090013 0.3835426 -0.37703013 0.07117426 0.29926884 0.04479977 -0.22650577
-0.70974797 -1.2708088 -0.5634069 0.3648218 0.78393066 0.8484738 0.38040298 0.39433676
0.5876337 0.048999757 -0.36232868 -0.332367 0.14936171 0.21004164 -0.07595227 0.089070246
-0.42084318 0.14290366 -0.62698394 -0.41015753 -0.0734821 0.9327493 0.83086705 0.93672657
-0.0876558 -0.124626465 -0.059657905 -0.058069166 0.24909994 0.47063407 0.33201733 0.06819253
0.55260986 0.17347178 -0.19792038 -0.6943123 -1.4321597 -0.94937676 0.03743149 -0.053783543
-0.22170721 -0.6274677 -0.8748245 -0.78458756 -0.5530327 0.20084776 -0.048031427 -0.1464029
0.0074396553 0.8438153 1.0478953 0.9498224 0.68205386 1.4599335 1.585897 1.0855076
0.10566985 -0.059146866 0.10488097 -0.0024501383 -0.18786585 -0.2896386 -0.35371882 -0.3190051
-0.07666507 0.20727798 0.4009151 0.35376456 1.1287793 0.58959216 0.53066367 0.16292964
-0.14759338 0.074372694 -0.8618159 -1.0290519 -0.88894254 -0.58659154 -0.38505802 0.40664208
-0.07019927 -0.3839953 0.0056956774 0.04053484 0.7870423 0.65087223 -0.2084151 0.3985376
0.49792567 0.61348474 1.1759468 0.40644324 0.39253846 -0.18240063 0.56300306 0.13105693
-0.08213228 -0.34235862 -0.75107753 -0.21003589 -0.35773778 0.23208648 0.5650719 0.26018935
-0.44481418 -0.8167187 -1.1697122 -0.75018424 0.04831203 -0.6152463 -0.84189177 -0.5998182
-0.11594617 0.28721777 -0.010283123 -0.25947723 -0.21946943 0.26454994 -0.135865 0.31880876
0.13667479 0.047860146 0.051299002 0.33261174 0.21405722 -0.07590334 -0.8643516 -1.0396839
-0.95433253 -0.22847274 0.3671606 -0.3067358 -0.0271402 0.48376966 0.13653478 0.0107013285
-0.10786529 -0.39521813 -0.68816197 -0.16287719 -0.01779161 0.3035185 0.1607894 0.47471634
0.8838181 1.3876847 1.2976618 0.37911218 0.36989114 -0.4490175 -0.11096459 -0.45979014
-0.2898714 0.18112811 0.24448253 0.5475262 0.42677897 -0.36552647 0.27326098 -0.3125473
0.005209297 -0.064260304 -0.19906366 0.049955964 0.47019967 0.31317663 0.41108423 0.55554867

fc1.bias f4 [128]
00000000: 198d abbe 1b70 9a3f 9dc8 bb3e 86fb 983f
00000010: 2bb9 633e ea21 323f 95d7 e2bd 81ab 1d3f
00000020: 02e7 81be 81a5 7f3f 29fb 4abe 7ab4 62bd
00000030: 3d65 10bf 3a89 6e3f 72cf d03e dbc8 393f
00000040: c790 b43e de89 e0be 27ef 04bd b842 6b3f
00000050: ac6b 903f 8a78 8cbe ff17 bb3f 5a74 61be
00000060: 98c8 023f 64ea 343f 0683 a2be 4fb7 3dbe
00000070: 527e 693c e413 afbe 9d40 78be d40d 36be
00000080: 8832 143f 8a65 ad3f f677 133f 98ce bebe
00000090: 2e58 2c3f 6b0a 0a3f e636 95bd 2786 92be
000000a0: 5582 2c3f 2761 4f3f f464 e9bd c1d5 62bf
000000b0: dcc5 6abe e791 683f 5a3d 6f3e 14f2 d93e
000000c0: 408d 1cbf 0df6 7bbe c06b b7be 907c 413f
000000d0: 50a1 8bbb d22d 4f3f bd3e 4a3f 8a29 7e3f
000000e0: cd36 9ebe 3e39 4c3f 715d b23f 2741 80be
000000f0: 3b05 bdbe c3fe 1cbe a5aa b6bd 5af9 af3e
00000100: 13ab 33bf 7f49 34be 62f8 fbbd 68f8 bfbe
00000110: be6e c0be 5865 3fbe c48a acbd 1c59 a4bc
00000120: 9d6c ba3f 7773 263d 7f12 66be ea47 bf3e
00000130: b331 1b3e e400 74be 0634 273d 7066 b03e
00000140: 67c9 0f3f 49a6 603e 8889 c0be 64c5 cc3d
00000150: 3281 853f 59c8 75bf 0684 c43e ec6b c7bc
00000160: 5783 a53f e7b2 60bd 5f7d 48bf 9e19 ee3d
00000170: 231c e83d a7fa 023f 81c9 edbd 08d8 bf3f
00000180: 8a73 82be dc86 2e3e 4260 7a3f 43d5 9c3f
00000190: 29cb ccbd b348 cebe b8bd 853f fbbb 5d3e
000001a0: 9418 9a3f 61b0 543f 84ee d4ba 3141 a2be
000001b0: afb6 9d3c 8820 483f 6551 1cbf 28b2 9abd
000001c0: 9002 bdbd 6f19 2bbf a250 aabe 1f9b a23f
000001d0: 5a07 98bd 765a 44bf 74d0 aabe 3e75 72bd
000001e0: 559e a8bc 2169 253e d428 ddbe ee6d c73f
000001f0: a7f8 0bbe 52d4 3abf 55bc bebd cbcd 9f3f
-0.33506086 1.2065462 0.36676493 1.1951759 0.22238605 0.69583 -0.11076275 0.6158982
-0.25371557 0.99861914 -0.19822372 -0.055347897 -0.5640448 0.9317814 0.40783268 0.72572106
0.35266706 -0.43855184 -0.032454636 0.9189868 1.1282859 -0.27435714 1.4616698 -0.22017041
0.5108733 0.7067015 -0.31740588 -0.18526958 0.0142513085 -0.34194863 -0.24243398 -0.17778713
0.57889605 1.3546612 0.5760492 -0.37266994 0.6732205 0.53922147 -0.07285862 -0.28617975
0.6738637 0.8100762 -0.113962084 -0.8860741 -0.2292704 0.9084763 0.23363248 0.42567503
-0.6115303 -0.2460558 -0.35824394 0.7558069 -0.0042611733 0.8092929 0.7900198 0.99282134
-0.30901185 0.79774845 1.3934766 -0.25049707 -0.36918053 -0.15331559 -0.089192666 0.34369928
-0.70182914 -0.17606162 -0.12303235 -0.37494206 -0.3758449 -0.18691003 -0.08424905 -0.020062022
1.4564396 0.04063746 -0.22467993 0.37359554 0.15155677 -0.23828465 0.040821098 0.34453154
0.5616669 0.21938433 -0.37604928 0.09998587 1.0430052 -0.9600883 0.38381976 -0.024343453
1.2930707 -0.054858115 -0.783163 0.1162598 0.11333492 0.51163715 -0.116106994 1.4987803
-0.25478774 0.17043632 0.9780313 1.2252582 -0.09999687 -0.4028984 1.0448523 0.2165374
1.2038751 0.8308163 -0.00162454 -0.31690362 0.01925215 0.7817464 -0.610617 -0.07553512
-0.092290044 -0.66835684 -0.33264643 1.2703589 -0.07423277 -0.7670053 -0.33362162 -0.059193842
-0.020583311 0.16153385 -0.43195212 1.5580423 -0.13669072 -0.72980225 -0.09313265 1.2484678

fc2.weight f4 [128, 128]
00000000: c0ee cabb f7f8 aabd ffbe 50bd 8ed1 123d
00000010: e696 f5bc bee3 793d 5f1a 8f3d b8a9 523c
00000020: 6006 e5bb 80d7 e5bc 5074 92bb 14cc 833c
00000030: 9545 8abd 240d adbc 7292 96bd f633 5e3d
00000040: 328f 66bd 7d5e a53d 38a7 babc 2b67 4fbd
00000050: 4ef1 2d3d b8e3 573c 22b2 7a3d e223 173d
00000060: 1062 aebd 6afc 643d 905a 88bc b802 20bd
00000070: fee9 653d db05 843d 7c1a 9fbd 70f2 02bc
00000080: 7da7 943d 7a36 0c3d d580 983d ee23 f8bc
00000090: 44b7 47bd 07a9 9b3d f2e7 163d 81c6 ad3d
000000a0: ea38 17bd f973 68bd 10be 29bc b571 aabd
000000b0: 00e9 0d3d 8b84 853d dcd1 ad3c 7016 0fbc
000000c0: 4680 333d f5cd 65bd b714 b13d d4fe b3bd
000000d0: 1768 adbd c419 abbc 59dd 933d 68ff 103c
000000e0: 160a 0b3d 3cb0 84bd c607 043d 60d2 21bc
000000f0: 181d 113d e6af 7f3d fe5e 1d3d 405f f6bb
00000100: 0069 b2bb 4110 63bd 3cf3 02bd 3a44 6b3d
00000110: 1f2d 11bd 26d7 603d 558f 0fbd 04a3 a8bc
00000120: 408f f63a 7d1d a6bd 805b 67ba c0f7 11bc
00000130: d018 02bc 00bf 90bc 27b6 8e3d 0797 853d
00000140: d45f 75bd 3a2d 283d 08fd 8dbd 0a1b 9abd
00000150: 5c56 dd3c 0043 aa3a b2e4 28bd 0598 aebd
00000160: 8228 0cbd 6cd7 f13c 408d a7bd a2da afbd
00000170: 28bb 373c 3668 82bd 6496 9ebd 0f7d 0bbd
00000180: 7827 69bc 437e a4bd 46be 71bd a0e7 bd3b
00000190: 34b2 aabd 688b 4bbc f4c4 69bd 8cfa 7abd
000001a0: dc4a 0e3d 2654 8bbd c22e 89bd c676 4e3d
000001b0: c860 873c 4ddb a43d e88a c1bc c1de 2ebd
000001c0: 8805 06bc 0075 ea39 a90d 8a3d 4a4f b4bd
000001d0: 2038 cebb 0a26 203d 595e 47bd 74f7 37bd
000001e0: 2ef6 2e3d 3673 adbd 0493 ab3c 8a24 8cbd
000001f0: a2f4 333d 63c7 9abd 4695 5e3d db5b abbd
00000200: a928 98bd d325 91bc 5477 bf3e c7ab bfbd
00000210: bc92 843e 25d7 0e3f 7d35 d03d cb2e ffbe
00000220: cf5c ab3d 5dd4 99bd 0a21 b93d 9c71 a53d
00000230: 4001 7d3e d51b aebd 1d48 a03d 22b2 913d
00000240: b22f 0c3e c50f 5e3d 1050 4c3e d0af d33d
00000250: 3c3c b3bd aaf2 80bd 028d 73bd dc28 0b3f
00000260: 9f46 113f 1adc 22bd b2d5 b13c 98c9 3ebc
00000270: 8ef2 f23e 68bd 11bd 27a4 b03d 37be 3abe
00000280: 7c1e 143e 1f9b 06be 27fe b63e 4510 8d3d
00000290: 9215 963d ec77 e43e 8388 a63d a258 d93d
000002a0: 8288 f7be 81c9 433c 0f7c 203e 4108 0f3e
000002b0: af97 0c3e b859 72bd d49b fa3e 3a8d d43e
000002c0: a737 683d 4d5c e43d 6352 a83d 15ea aebd
000002d0: eec8 5dbc a7e1 debb e9e3 9bbd 9707 8d3d
000002e0: 70cc ffbb f298 b0bd 0e07 3dbd df0b d03d
000002f0: 2e96 283c 6d02 38bd 3c1e c83e e510 ae3e
00000300: 7c7c c93c 84a3 c03d 0a7b 14be 408e b33c
00000310: 2da0 853d 53cc 9f3c c389 303d c6d3 b33e
00000320: eb75 58bd b044 b43d 697f 8cbc b35b c93e
00000330: e8d0 093f a830 7b3d 7b6e ad3e 4fab f13e
00000340: 7616 033f a3e0 e4be 8a6c 343d 6055 a73e
00000350: 0599 123d d3fd ae3d 4be4 d93e 177e 713e
00000360: 98c6 fabd dbc5 693e 3f9c d23d b3a1 3fbd
00000370: 5d50 c33d f59b 2b3d cc24 cb3e 91e4 57bd
00000380: 829f 5abd 8006 e73e dc4d 3abe 6ff1 903d
00000390: 9fcf fd3e 71f5 e9bc ab79 533d a773 2b3f
000003a0: 08a4 4c3c 46b1 c8bd 8760 973d 82ac 9a3d
000003b0: 4db1 863e 4355 543d 21ea 1d3e 8ad4 2abe
000003c0: 7095 ed3c 39ca 343e ea96 6b3e c093 8d3d
000003d0: 8125 b93d 1c67 073e 047a f0bc 20ba 1c3f
000003e0: d13a 79be 8b25 afbb 350d 813d 2e5d 6dbd
000003f0: da06 f23d c7c6 283e f790 30bd 1bbb 723d
-0.006193012 -0.083482675 -0.050963398 0.03584438 -0.02997918 0.061008207 0.06987452 0.012857847
-0.0069892853 -0.02805686 -0.004469432 0.016088523 -0.06751553 -0.02112443 -0.07352151 0.054248773
-0.056288905 0.08074663 -0.022784814 -0.050635498 0.042466454 0.013176851 0.061205037 0.036899455
-0.08514798 0.055904783 -0.016644746 -0.039065093 0.056131355 0.06446429 -0.07768723 -0.007992372
0.07258508 0.03423164 0.07446448 -0.03029057 -0.04875876 0.07600599 0.036842294 0.08485127
-0.03691951 -0.056751225 -0.010360256 -0.08322469 0.034646034 0.06519421 0.021218233 -0.008733377
0.043823503 -0.05610462 0.08646529 -0.08788839 -0.08467119 -0.02088631 0.07219953 0.008849956
0.033945166 -0.064789265 0.032233976 -0.009876817 0.035428137 0.06242361 0.03842067 -0.007518679
-0.005444646 -0.055435423 -0.031970248 0.057438113 -0.03544342 0.05489268 -0.0350488 -0.020585544
0.0018811002 -0.08111093 -0.0008825585 -0.008909166 -0.007940486 -0.0176692 0.069683366 0.06522947
-0.059905842 0.041058756 -0.069330275 -0.075246885 0.027018718 0.0012989938 -0.041233726 -0.08525089
-0.03421832 0.029521666 -0.08181238 -0.08586623 0.011214055 -0.06367533 -0.077435285 -0.034054812
-0.0142306015 -0.08031895 -0.05901935 0.005795434 -0.08334771 -0.012423374 -0.057072595 -0.061274096
0.03473936 -0.068031594 -0.066983715 0.05040624 0.016525641 0.08049641 -0.023625806 -0.042692903
-0.00818003 0.0004471913 0.06740887 -0.08804186 -0.0062933117 0.039098777 -0.04867396 -0.044913724
0.042715244 -0.0846924 0.020944126 -0.06842907 0.043934472 -0.07557561 0.054341577 -0.083671294
-0.0742963 -0.017718231 0.37395728 -0.09358936 0.258932 0.55797035 0.10166452 -0.49840388
0.08367311 -0.07511208 0.09039505 0.0807831 0.24707508 -0.08501402 0.078262545 0.07114054
0.1369007 0.054214258 0.19952416 0.10336268 -0.08751723 -0.062962845 -0.059460647 0.5435922
0.56748384 -0.039760686 0.021708343 -0.011644743 0.4745068 -0.035581023 0.086250596 -0.18236624
0.14464754 -0.13145112 0.35740778 0.06887869 0.07328333 0.44622743 0.08131506 0.106126085
-0.48346335 0.011949898 0.15672325 0.13967992 0.13729738 -0.059167594 0.48947012 0.41513997
0.0566937 0.111504175 0.08218839 -0.08540741 -0.013536675 -0.006801802 -0.0761183 0.06886213
-0.0078063533 -0.08622922 -0.046149306 0.10158514 0.010289712 -0.04492419 0.39085567 0.33997265
0.024595492 0.09406188 -0.1450006 0.021918416 0.06524692 0.019506609 0.04310013 0.35122508
-0.05284683 0.088021636 -0.017150598 0.39327773 0.5383439 0.0613257 0.33873352 0.4720101
0.5120615 -0.44702634 0.044048823 0.32682323 0.035790462 0.08544507 0.42556986 0.23583256
-0.1224491 0.22829382 0.10283708 -0.046785068 0.095368125 0.04189678 0.3967651 -0.052708212
-0.053374775 0.45122147 -0.18193763 0.070773 0.49572465 -0.028559418 0.051629703 0.66973346
0.01249028 -0.09799437 0.07391458 0.075524345 0.26307145 0.051839124 0.15421344 -0.1668264
0.029001921 0.17655267 0.23006788 0.06912947 0.090403564 0.13222927 -0.029355057 0.61221504
-0.24338843 -0.0053450516 0.06301347 -0.05795019 0.11817713 0.16482078 -0.043107 0.05926047

fc2.bias f4 [128]
00000000: 98dd 8b3c d87a 2dbf 6974 983f f3ff 11bf
00000010: 3f31 06bf 0200 853f cf23 633f 44d9 8a3d
00000020: 201b adbd ae48 613f 9f0a 353d ded1 983f
00000030: 866c 99bd 58ca 51bb e0ce 30bf 4c24 9e3d
00000040: dbb0 1cbf 17ee d4be 6781 a4bd 68b6 673c
00000050: be9c 00bf a624 02bf f47f 01bf 43cb 473c
00000060: c757 6abe 9f9b 943f 7db0 823f 8a21 f8be
00000070: be1e 973f 0077 0fbf 1845 ba3c 638e 39bd
00000080: 54ac debe 339f 06bf 5ef5 d13c 0ff6 d5be
00000090: ec96 cebc a104 9b3f da25 06bf 8db9 1abf
000000a0: a16e d8be 588f 96be aa42 24bf 8c81 e93c
000000b0: cb6e 32bf f13c 05bf dadb 34bf e07c 9c3f
000000c0: 6bef 2fbf 6fd9 703f 18bb a23f 5100 733d
000000d0: 8639 87bd e950 22bf 22b4 343e 2961 11bf
000000e0: 3e6c a2be 4c21 0fbf d7da 19bf baf8 2bbf
000000f0: 3c4e 3cbf cba8 6abc 889e bbbe e023 bc3c
00000100: 2a71 19bf b344 d6be a3c8 efbe a76b 873c
00000110: 7bb4 9c3d 6565 9cbd da24 473d 4bfc 903f
00000120: 7800 1bbf 9d76 82bd 0b3d a13f 1ae1 923f
00000130: a2a1 1fbf 8034 983f 72b5 14bf 4edc 04bf
00000140: e623 d43b 7c18 6abd 8472 353f 270d 3bbb
00000150: 57f3 3dbf 5fca 2ebf e957 d0be 57c7 813f
00000160: 4977 32bf 90d7 17bf 2454 f63c 947d afbe
00000170: c366 ebbe 308a 19bf 0724 aabd 7067 183d
00000180: 0cf7 903f 7078 3f3f f1a0 31be 9e05 1fbf
00000190: 7ae1 8a3f 17b5 0fbf 06e3 cdbe de91 f9be
000001a0: 345f cebd b177 7f3f c2d3 f8be 7547 08bf
000001b0: 2985 11bd 0043 03bc 0d87 cf3e 5c1a 9b3f
000001c0: 4889 cabe 3ad0 eabe a1e4 8f3c ec97 71bd
000001d0: 4690 483d 7aeb 02bf c673 1abf 6309 4dbd
000001e0: bf22 933f 33b0 963f 2aac 8b3f a736 593f
000001f0: 3968 97be df29 1bbf d7d4 ce3c f6c0 10bf
0.017073438 -0.6776557 1.1910526 -0.5703117 -0.52418894 1.0390627 0.88726515 0.067797214
-0.08452439 0.88001525 0.044199582 1.1939046 -0.07491402 -0.0032011475 -0.69065666 0.07721767
-0.6120736 -0.41587898 -0.08032494 0.01414261 -0.5023917 -0.5083717 -0.50585866 0.012194457
-0.22885047 1.1609992 1.021011 -0.48463088 1.1806257 -0.56040955 0.022738025 -0.045301806
-0.4349085 -0.5258667 0.025629696 -0.4178929 -0.02521845 1.2110788 -0.52401507 -0.6043938
-0.42271903 -0.29406238 -0.6416422 0.028504156 -0.69700307 -0.52046114 -0.70647967 1.2225609
-0.687247 0.9408178 1.2713346 0.059326474 -0.066027686 -0.6340471 0.1764684 -0.5678888
-0.31723207 -0.5591018 -0.6009955 -0.671764 -0.73556876 -0.01432247 -0.36644387 0.022966325
-0.599383 -0.41849288 -0.4683276 0.016530825 0.076516114 -0.07636527 0.04861913 1.1326994
-0.6054759 -0.0637028 1.2596754 1.1474946 -0.6235601 1.1891022 -0.58089364 -0.5189866
0.006474006 -0.057152256 0.7087786 -0.0028541775 -0.7419943 -0.68277544 -0.4069207 1.0138959
-0.69713265 -0.593133 0.030069418 -0.34275496 -0.45976838 -0.5997648 -0.08307653 0.03720802
1.1325393 0.7479315 -0.1734655 -0.62117946 1.085006 -0.56135696 -0.40212268 -0.487441
-0.10076752 0.9979201 -0.48599058 -0.53234035 -0.035527382 -0.0080115795 0.40532723 1.2117419
-0.39557862 -0.4586199 0.017565073 -0.058982775 0.048965715 -0.5114056 -0.60332906 -0.05005778
1.1494979 1.1772522 1.0911915 0.8484902 -0.29571703 -0.60610765 0.025247974 -0.56544435

fc3.weight f4 [21, 128]
00000000: 44ec 87bd e71d e0be fbc5 293e 0268 48bf
00000010: edcd 23be adcf 013e 1fbe c73d d81f 8e3d
00000020: de38 753d edaa 073e 0b82 3abd 5bf0 6f3e
00000030: 7a06 143d dfa5 b1bd 2132 54bf 2255 8a3d
00000040: 56b5 1abf 6025 68be 771c 8c3d aace 603d
00000050: 206e 9bbe 7aba d0be c1d7 67be c012 413b
00000060: bb3f 24bd ddc5 883e 7e07 393e 83cd 05bf
00000070: 7cbf 333e e80a 52be b9ca 1dbd c402 a8bc
00000080: 50f0 1abe 79d2 35be 6b69 4bbd e239 3fbe
00000090: 771c 99bc 8076 7c3e 02ef 3fbe e356 c3be
000000a0: 681a c8be bd34 f2bd cd4a 91be f54e 89bc
000000b0: 2c23 ffbe 89e3 9dbe 7bbd 16bf ecd1 893e
000000c0: d27d 14bf 5e20 2c3f 5d07 313e 70a0 e53b
000000d0: 8090 2f3c 226d afbe b1a1 3a3e ed6e c8be
000000e0: 8be3 3abd 02a3 47bf bb56 60be f1d9 debe
000000f0: 8f39 cebe e38f 143d b4d4 ebbd c336 a4bd
00000100: 33a8 7bbe 3b02 14be 44d3 31be c3b1 69bd
00000110: da61 0ebd 752a aa3d 0212 483d a251 143e
00000120: 16fa 88be 88e7 0ebd 1f84 3a3e 91bb 213e
00000130: 32b7 ffbe 3595 3e3e fe24 84be 0a8d 76be
00000140: cda6 acbd 8c96 d03c 6673 623f 5060 be3d
00000150: 228c fcbe c546 08bf 17a9 fbbd 36f7 593e
00000160: 9fd4 b6be f557 40be 8048 c0bb 3a28 3cbe
00000170: 4d9f 5dbe f6a9 8cbe 51d1 373d f4b8 04bd
00000180: 4958 7b3e d60f c13d aab7 613d 279c 1cbf
00000190: a5b7 ef3d a756 b9be 2081 34be 55e0 8dbe
000001a0: 41dd 663d 7dae 0d3f 910c b8be 5b18 dcbe
000001b0: 9f63 60bd 8657 613d f1a2 2e3e f985 6c3e
000001c0: 356e 45be 7a3c c3be 2821 68bc 3e4f f23c
000001d0: 3ec2 7c3d 4ef9 85be fb69 85be 9b05 973d
000001e0: b8bd 2d3f f30c 4a3e d18f 3f3e d5e3 133e
000001f0: ca54 84bd 31d1 babe 9e3c 34bd 9907 14bf
00000200: ae62 6c3d 54b6 ebbe 0f32 593e e19c 24bf
00000210: e417 57be d309 413e bb47 ff3d e735 babc
00000220: 82a9 b6bc b289 893d 60e7 1f3c 749a 273e
00000230: 7389 a43d 5270 063d 9472 12bf 41f2 f13c
00000240: e64f 11bf 92a8 8abe 0076 063a 0060 a6bd
00000250: 7c6b b8be c3c2 0abf 6066 ddbd 4370 8c3d
00000260: 96d0 cdbd fd81 173e c62b 463e 256a d1be
00000270: 78e3 693e cc08 97bd 402f 28bb d7c9 88bd
00000280: 6801 07be 4e5e 29be 1cd8 ac3c aa74 6bbd
00000290: c0d6 a5bc 4f45 733e 5a0e adbe ef0b a0be
000002a0: 8275 bcbe 2c8b b5bd 009b 8abe 66f1 943c
000002b0: 91c7 fdbe d7ee d7be 6204 04bf b8b8 ee3d
000002c0: 51c1 e4be ef42 de3e 33e1 d33d 15a0 8ebd
000002d0: 4e70 0e3d 07b7 42be 978d d2bc b49f e7be
000002e0: 4893 0dbe 2c52 0dbf d70b ccbd 16a1 08bf
000002f0: 0dd3 4cbe e940 853d d1f7 eabc fc0d 93bd
00000300: 3787 5cbe 5957 79be 0aba 85bd b730 9d3c
00000310: 3029 37bd 2037 3ebc ca1f 7a3d 4265 523e
00000320: 6398 5fbe c5b1 a5bd 84f3 123e acb8 1f3e
00000330: bf1f dbbe 2f56 2b3e 206c bfbd 07ab 3bbe
00000340: ca25 523d 3065 27bc f336 3d3d 2cee 85bd
00000350: b0c3 eabe 5dc7 f6be c3f8 cdbd 32b5 863e
00000360: e4b4 9bbe bede 88be 3012 dbbc 1d09 eabd
00000370: cb2e 78be 0c0d debd 0035 753d dea1 723d
00000380: 4cfa 0a3e 8d37 503d 8386 fabd bf03 06bf
00000390: 2a7a 2f3e 067b cdbe 043e 45be 1eeb 8bbe
000003a0: 3b50 3d3c b3d0 d23e 2d1d 9dbe 9d4f c6be
000003b0: b05a 6d3c b08b 70bd 4ccc f33d 1a22 833e
000003c0: 4929 c4bd dda4 01bf 3886 36bc 6ec1 6a3d
000003d0: 40cf 37bb 7203 45be 66bc 7bbe a646 353d
000003e0: 89fb d13e c4b0 bb3d 13fc 403e c0dd c63d
000003f0: 1b53 5cbd 1c33 83be 274a 12bd d032 cbbe
-0.06636861 -0.43772814 0.1657943 -0.78283703 -0.15996523 0.12676878 0.097530596 0.069396675
0.059868686 0.13248797 -0.045534175 0.23431532 0.03613899 -0.086742155 -0.8288899 0.06754519
-0.60432947 -0.22670507 0.06841367 0.05488459 -0.30357456 -0.4076727 -0.22640897 0.0029460639
-0.04009984 0.26713458 0.18069264 -0.5226671 0.17553514 -0.20511973 -0.03852341 -0.020509131
-0.15130734 -0.1775607 -0.04966108 -0.18674424 -0.01869033 0.24654579 -0.18743518 -0.38152227
-0.39082646 -0.11826465 -0.2837738 -0.016761282 -0.49831522 -0.30837658 -0.58882874 0.2691797
-0.58004487 0.6723689 0.17287965 0.007007651 0.010715604 -0.3426295 0.18225743 -0.3914713
-0.045627158 -0.77983105 -0.21908085 -0.4352565 -0.4027829 0.036270034 -0.11515179 -0.080182575
-0.24575882 -0.14453976 -0.17365748 -0.057054292 -0.034761287 0.08308879 0.0488453 0.14484265
-0.267533 -0.034888774 0.18214463 0.15794207 -0.49944454 0.18611605 -0.25809473 -0.2407724
-0.08430252 0.025462411 0.88457334 0.09295714 -0.49325663 -0.53232986 -0.12288111 0.2128571
-0.35709092 -0.18783553 -0.0058680177 -0.1837472 -0.216428 -0.2747342 0.044877354 -0.032402948
0.24545397 0.094268486 0.055106796 -0.6117577 0.11704949 -0.36198923 -0.17627382 -0.27710214
0.056363348 0.55344373 -0.35947087 -0.42987332 -0.054782506 0.05501511 0.17054345 0.23097982
-0.19280322 -0.38132077 -0.014168061 0.029578801 0.06170868 -0.26166767 -0.2605742 0.07374116
0.6786761 0.19731502 0.18707205 0.1444238 -0.06461485 -0.36487725 -0.04400312 -0.57824093
0.057711296 -0.46037543 0.21210502 -0.6430188 -0.21005207 0.18851404 0.124648534 -0.02273078
-0.022297624 0.067157164 0.009759754 0.16367513 0.08034029 0.03282196 -0.5720608 0.029534461
-0.5676254 -0.27081734 0.00051292777 -0.08123779 -0.36019504 -0.5420343 -0.10810542 0.0685735
-0.1004955 0.1479568 0.19352636 -0.40901294 0.22840679 -0.07374725 -0.0025662929 -0.06679123
-0.1318413 -0.1653988 0.021099143 -0.057484306 -0.020244002 0.23756908 -0.33800012 -0.31259105
-0.368084 -0.088644356 -0.2707138 0.018181514 -0.4956632 -0.42174408 -0.5156919 0.11656326
-0.4467874 0.4341044 0.10345688 -0.06964127 0.03477507 -0.19015132 -0.02570228 -0.4523903
-0.13825715 -0.5520351 -0.09963196 -0.533708 -0.20002384 0.06506521 -0.028682621 -0.07180402
-0.21535955 -0.24349727 -0.06529625 0.019188268 -0.044717014 -0.0116098225 0.061065473 0.2054644
-0.21835475 -0.080905475 0.14350706 0.1559779 -0.42797658 0.16732095 -0.09346795 -0.1832696
0.05130557 -0.010216996 0.04619498 -0.06539568 -0.45852423 -0.48198977 -0.10057213 0.26310116
-0.30411446 -0.2673244 -0.02674207 -0.114275195 -0.242366 -0.10842332 0.059864998 0.0592364
0.13572043 0.050834227 -0.12232687 -0.52349466 0.17136446 -0.40132922 -0.19261938 -0.27327818
0.011554773 0.4117485 -0.30686322 -0.38732615 0.014486954 -0.058726966 0.11904201 0.25611955
-0.09578187 -0.50642186 -0.011140399 0.057313375 -0.0028047115 -0.19239596 -0.24583587 0.04425683
0.4101222 0.09164575 0.18846159 0.09710264 -0.053790193 -0.2562493 -0.03571525 -0.39687204

fc3.bias f4 [21]
00000000: f0a7 803f e3e4 393f 0e86 983e 7e1e 983e
00000010: aedb 9d3e fee1 873e 6d4a 9c3e 3d8a af3e
00000020: 70b5 bb3e 0e9b f13e 7ff0 693e 9753 3c3e
00000030: cc1a 433e b80c 763e 260f 993d c9a6 4a3e
00000040: f9e3 f03d 0058 943d f4ae 73ba 9680 3ebd
00000050: 6430 653d
1.005125 0.7261488 0.29789776 0.29710764 0.30831665 0.26539606 0.30525532 0.34285155
0.36661863 0.4718861 0.22845648 0.18391262 0.19053191 0.2402829 0.074735925 0.19790186
0.11762232 0.07243347 -0.00092957844 -0.046509348 0.055954352
