model_checkpoints/model_ep_750.pth (torch, 83135 bytes, 6 tensors)

fc1.weight f4 [128, 7]
0	0xbb397380	-0.0028297603
1	0x3e4f9f6e	0.20275661
2	0xbe9f461e	-0.31108183
3	0xbe8e6ad4	-0.27815878
4	0xbe151186	-0.14557466
5	0x3dcf92a8	0.10135394
6	0xbbf56380	-0.007488668
7	0x3f09f945	0.5389598
8	0x3f1b6b33	0.6071045
9	0x3f848fe6	1.0356414
10	0x3f2e7946	0.681538
11	0x3f1f8e90	0.6232691
12	0xbce983f6	-0.028505307
13	0xbe8f202c	-0.27954233
14	0xbce1f983	-0.027584797
15	0x3dcfde87	0.101498656
16	0x3e8318a4	0.25604737
17	0x3ed3fb99	0.4140289
18	0x3e1339f5	0.14377578
19	0x3db028b5	0.08601514
20	0x3e985e00	0.29759216
21	0x3efe75ee	0.49699348
22	0x3ebd2cdf	0.36948296
23	0x3f83ace8	1.0287142
24	0x3f27817c	0.6543195
25	0x3f3c0661	0.73447233
26	0x3f39d209	0.72586113
27	0xbe9c0879	-0.30475214
28	0x3d9eded5	0.077573456
29	0xbecb3d40	-0.39695168
30	0xbebcf931	-0.36908868
31	0x3d853dc4	0.065059215
32	0x3e861ba1	0.26192954
33	0x3e0ec789	0.13943304
34	0x3e1e8e97	0.15484081
35	0xbcfa533b	-0.030557266
36	0x3eab61e9	0.33473137
37	0x3f129c66	0.57269895
38	0x3f10b23a	0.5652195
39	0x3f1ea255	0.6196645
40	0x3f37d6ce	0.7181214
41	0x3e388573	0.18019657
42	0x3de2a3a8	0.11066371
43	0x3e03198d	0.12802716
44	0xbda37349	-0.07980973
45	0xbdf874c1	-0.12131644
46	0xbea5aa4a	-0.32356483
47	0xbf2d6970	-0.6773901
48	0xbf30b224	-0.6902182
49	0xbc29e5f0	-0.010369763
50	0x3e7ee754	0.24892932
51	0x3e3d1b8a	0.18467537
52	0xbebd9a13	-0.37031612
53	0xbfdb6bbb	-1.7142252
54	0xbfd2dcdc	-1.6473651
55	0xbf929ac0	-1.1453476
56	0x3dd746d4	0.10511556
57	0x3e945297	0.2896926
58	0x3d99f23c	0.07516906
59	0x3cfd3e19	0.0309134
60	0xbedc1052	-0.429812
61	0xbf413da8	-0.75484705
62	0xbf4ce475	-0.800361
63	0x3e801351	0.25014737
64	0x3f2a0efa	0.664291
65	0x3f355fbd	0.7084921
66	0x3f423d64	0.75874925
67	0x3f3c578c	0.73571086
68	0x3f02cb7f	0.5109176
69	0x3e97230b	0.29518923
70	0xbca42c47	-0.020040644
71	0x3e9bc59d	0.30424204
72	0x3f25befd	0.6474455
73	0x3f4a1235	0.7893403
74	0x3ede1e39	0.43382433
75	0x3ee4f976	0.44721574
76	0x3e03f068	0.12884676
77	0xbcc5e133	-0.024155235
78	0xbd64b058	-0.055832237
79	0xbec40199	-0.3828247
80	0xbee56502	-0.44803625
81	0x3ef2e611	0.47441152
82	0x3ee7d2ef	0.45278117
83	0xbecb3d13	-0.39695033
84	0x3debdcfa	0.11516757
85	0x3f1277fd	0.5721434
86	0x3eaa8514	0.33304656
87	0x3e173003	0.14764409
88	0xbed99875	-0.42499128
89	0xbf8d2f9c	-1.1030154
90	0xbf0221a6	-0.50832593
91	0x3ebe377b	0.37151703
92	0x3f4eabef	0.807311
93	0x3f760592	0.9610225
94	0x3ebf700a	0.37390167
95	0x3ecba2a0	0.3977251
96	0x3f00fc8e	0.5038537
97	0x3d195566	0.037434958
98	0xbcc9f9ca	-0.024655242
99	0xbe364235	-0.17798693
100	0x3efbb868	0.49164128
101	0x3eef5981	0.46747974
102	0x3e0cbc7a	0.13743773
103	0x3e1106e9	0.14162792
104	0xbe9c6180	-0.30543137
105	0x3dfe605f	0.12420725
106	0xbf3755d9	-0.7161537
107	0xbee6dbc1	-0.45089534
108	0xbdc55c6b	-0.09636768
109	0x3f52cb0a	0.82341063
110	0x3f495bf3	0.7865593
111	0x3f5b8a1b	0.8575761
112	0xbd0b2832	-0.03397388
113	0x3c0bfecd	0.008544636
114	0x3d8be8c1	0.06831504
115	0xbdd932e7	-0.10605412
116	0x3e345f96	0.17614588
117	0x3ed9bbaf	0.42526004
118	0x3e907e33	0.28221282
119	0x3de7f220	0.113254786
120	0x3f49736b	0.7869174
121	0x3ee52959	0.44758108
122	0x3e382b3d	0.17985244
123	0xbed1b0bc	-0.4095515
124	0xbfa3ab4f	-1.2786654
125	0xbf5fbc88	-0.8739705
126	0x3d15d45c	0.036579475
127	0xbc879a5d	-0.016553098
128	0xbeb17825	-0.34661976
129	0xbf5a09d3	-0.8517124
130	0xbf6adf51	-0.91747004
131	0xbf164d27	-0.58711475
132	0xbee623df	-0.44949242
133	0x3e4306ec	0.19045609
134	0xbdc9f261	-0.09860683
135	0xbe1131f2	-0.14179209
136	0xbd017224	-0.031602994
137	0x3f3f9068	0.7482972
138	0x3f751ec5	0.95750076
139	0x3f629e9a	0.88523257
140	0x3f334c63	0.7003843
141	0x3fc7d495	1.561175
142	0x3fe53972	1.7908156
143	0x3f901107	1.1255196
144	0x3e37d69b	0.17952959
145	0xbe0cca62	-0.13749078
146	0x3df25a2f	0.118336074
147	0xbb209280	-0.0024501383
148	0xbe405fe8	-0.18786585
149	0xbe944b83	-0.2896386
150	0xbeb51aa2	-0.35371882
151	0xbea354a3	-0.3190051
152	0xbd9d0294	-0.07666507
153	0x3e5440ae	0.20727798
154	0x3ed25b3a	0.41085225
155	0x3ec36814	0.38165343
156	0x3f9fd3f2	1.2486556
157	0x3f12965b	0.57260674
158	0x3f0bc45a	0.54596484
159	0x3d3f42a5	0.046694417
160	0xbe1cbb2d	-0.15305777
161	0x3d6ea11d	0.05825912
162	0xbf81decc	-1.0146117
163	0xbfa2efa2	-1.272938
164	0xbf799772	-0.9749671
165	0xbea2cb14	-0.3179556
166	0xbe85657f	-0.26053998
167	0x3f045779	0.5169597
168	0xbcdaa4de	-0.026689943
169	0x3f161df7	0.5863947
170	0x3f3308fd	0.6993559
171	0x3f26d98e	0.6517571
172	0x3f580bba	0.84392893
173	0x3f60ff32	0.878894
174	0x3daf0ebc	0.08547732
175	0x3ecca281	0.3996773
176	0x3f0a6468	0.5405946
177	0x3f44e30e	0.7690896
178	0x3f9f852c	1.2462516
179	0x3ef1f1d8	0.47254825
180	0x3eac3a64	0.336383
181	0xbe48bb29	-0.19602646
182	0x3f282f9c	0.65697646
183	0x3f43d7b4	0.7650101
184	0x3efc4db1	0.49278024
185	0x3db8939b	0.090125285
186	0xbe82d0f9	-0.25550058
187	0x3e10dc25	0.14146478
188	0xbe1e2343	-0.15443139
189	0x3e8e2bb0	0.27767706
190	0x3f5d73f5	0.8650506
191	0x3f0399ef	0.5140676
192	0xbe6f1543	-0.23347954
193	0xbf06bbc9	-0.5263029
194	0xbf879416	-1.0592067
195	0xbf27d16b	-0.6555392
196	0x3da36952	0.07979073
197	0xbecb71f4	-0.39735377
198	0xbf38a1e4	-0.72122025
199	0xbedee8f6	-0.4353711
200	0x3e8c4008	0.27392602
201	0x3edb28ad	0.4280447
202	0x3de6687a	0.11250396
203	0xbe84da33	-0.25947723
204	0xbe60bc98	-0.21946943
205	0x3e877317	0.26454994
206	0xbe0b2032	-0.135865
207	0x3ea33ae7	0.31880876
208	0x3e0bf47a	0.13667479
209	0x3d440900	0.047860146
210	0x3d6ca2e0	0.057772517
211	0x3f11adef	0.56906027
212	0x3eee9858	0.46600604
213	0x3e86d950	0.2633767
214	0xbf4d5124	-0.80201936
215	0xbf7b291f	-0.9810962
216	0xbf71189b	-0.9417817
217	0xbc97c811	-0.018528016
218	0x3f004156	0.50099695
219	0xbdf7a0a8	-0.120911896
220	0x3e5ce3a5	0.21571214
221	0x3f24180b	0.64099187
222	0x3eaa15de	0.33219808
223	0x3daa28c0	0.08308554
224	0xbc2038cd	-0.009779167
225	0xbea140d8	-0.31494784
226	0xbed90464	-0.42386162
227	0xbda8af48	-0.08236557
228	0x3cf1a08b	0.029495498
229	0x3d5155fa	0.051107384
230	0x3e1ce0db	0.1532015
231	0x3ef221ff	0.47291562
232	0x3f5af980	0.85536957
233	0x3fbafa5d	1.4607655
234	0x3f9ecd31	1.240637
235	0x3eb1df21	0.34740546
236	0x3e6610d1	0.22467352
237	0xbef31988	-0.47480416
238	0xbcf861df	-0.030320106
239	0x3e11b70d	0.14229985
240	0x3ea73dbb	0.32664284
241	0x3eec2bad	0.46127072
242	0x3e9fcdd2	0.31211716
243	0x3ec7cb10	0.39022112
244	0x3ea4af96	0.3216521
245	0xbebb2649	-0.36552647
246	0x3e8be8dd	0.27326098
247	0xbea00633	-0.3125473
248	0x3baab2c0	0.005209297
249	0xbd839ae8	-0.064260304
250	0xbe4bd758	-0.19906366
251	0x3d4c9ea0	0.049955964
252	0x3ef88246	0.4853689
253	0x3edb1869	0.4279206
254	0x3f218ecb	0.6310851
255	0x3f2c93ba	0.6741291

fc1.bias f4 [128]
0	0xbeab8d19	-0.33506086
1	0x4035701f	2.8349683
2	0x4010b03f	2.2607572
3	0x402ca35b	2.6974704
4	0xbe33d725	-0.1756254
5	0x401ed29a	2.481604
6	0xbf158d9e	-0.58419216
7	0x3ff1baf9	1.8885185
8	0xbf2c0463	-0.67194194
9	0x40194344	2.3947306
10	0x3fd0e13c	1.6318736
11	0x3fd43242	1.6577837
12	0xbf744735	-0.95421153
13	0x401dfaf3	2.4684417
14	0x40066d52	2.1004224
15	0x3fe1c9ab	1.7639669
16	0x3ffe0692	1.9845755
17	0xbf56ef61	-0.83959013
18	0xbf15bf1f	-0.5849475
19	0x4007a32f	2.119335
20	0x40368284	2.851716
21	0xbe8c788a	-0.27435714
22	0x40403c5d	3.0036843
23	0xbf4e77b2	-0.8065139
24	0x401c5d38	2.4431896
25	0x400d7489	2.2102377
26	0xbd10e604	-0.03537561
27	0xbef2d27b	-0.4742621
28	0xbee778f4	-0.45209467
29	0xbeaf13e4	-0.34194863
30	0xbf2ad5fc	-0.66732764
31	0x3fbd6177	1.4795369
32	0x400decc6	2.2175765
33	0x4031fdaa	2.7811074
34	0x401bbf93	2.4335678
35	0xbebece98	-0.37266994
36	0x40148e9c	2.3212042
37	0x40278b37	2.617872
38	0xbf04d831	-0.5189238
39	0xbf38cd60	-0.7218838
40	0x3fef7996	1.870898
41	0x401009a5	2.2505887
42	0xbf10f075	-0.5661691
43	0xbf9dfaa8	-1.2342119
44	0xbf11b3f3	-0.56915206
45	0x401c8749	2.4457572
46	0x3e95840e	0.29202312
47	0x40286e98	2.63175
48	0xbf66b5ea	-0.9012133
49	0xbe1471fd	-0.14496608
50	0xbeb76bc0	-0.35824394
51	0x4019c7a1	2.4028094
52	0x3f360171	0.7109595
53	0x40170d62	2.3601918
54	0x4011621b	2.271613
55	0x4026c748	2.6059132
56	0xbe9e36cd	-0.30901185
57	0x401413b5	2.3137028
58	0x403b6104	2.9277964
59	0xbf2c4777	-0.67296547
60	0xbf43b367	-0.7644562
61	0x3fcaa56c	1.5831733
62	0xbf215565	-0.63020927
63	0x401d307b	2.456084
64	0xbf84acc1	-1.036522
65	0xbe6bf8b3	-0.2304409
66	0xbf02cbaf	-0.51092046
67	0xbebff868	-0.37494206
68	0xbec06ebe	-0.3758449
69	0x3fcbe76f	1.5930003
70	0xbf0dcf3c	-0.5539434
71	0x3ff12e83	1.8842319
72	0x403f436c	2.98849
73	0x3fb9f248	1.4527063
74	0xbed5a976	-0.4173085
75	0x401941a0	2.3946304
76	0xbeba88b1	-0.36432412
77	0xbf242e1e	-0.6413287
78	0x3fe825c0	1.813652
79	0x40142af9	2.3151228
80	0x40217fb5	2.5234196
81	0x3fbf9b54	1.4969277
82	0xbec08988	-0.37604928
83	0xbeb41734	-0.35173953
84	0x40295d71	2.6463282
85	0xbfb4573a	-1.408912
86	0x400720ed	2.1113846
87	0x3ef39719	0.47576216
88	0x40317621	2.772835
89	0x3fe0f5cf	1.7575015
90	0xbf9d4dac	-1.2289329
91	0x3fe05367	1.7525452
92	0x3fd3cbd7	1.6546582
93	0x401278c4	2.288621
94	0xbf05d853	-0.5228321
95	0x4043e0ad	3.0605881
96	0xbf2921d2	-0.6606723
97	0x401b262e	2.4242053
98	0x40061005	2.0947278
99	0x403831c6	2.878038
100	0xbf002420	-0.5005512
101	0xbf2120fa	-0.62940943
102	0x40271847	2.6108568
103	0xbd17aa2b	-0.03702752
104	0x402c0ab0	2.6881523
105	0x401dd6a9	2.4662268
106	0x4038686b	2.8813732
107	0xbea24131	-0.31690362
108	0x3feea877	1.8645161
109	0x405b599a	3.4273438
110	0xbf83b9fd	-1.0291134
111	0x3fb22505	1.3917547
112	0xbdbd0290	-0.092290044
113	0xbf86c4c3	-1.0528797
114	0xbf4452b9	-0.76688725
115	0x403924f8	2.8928814
116	0x3f47db55	0.7806905
117	0xbfa0c244	-1.2559285
118	0xbf360fa1	-0.711176
119	0xbf0420e3	-0.5161268
120	0xbeb7cb4d	-0.35897294
121	0x40398ad4	2.8990984
122	0xbf437c82	-0.7636186
123	0x404c7950	3.1949043
124	0xbf10f5ab	-0.5662486
125	0xbf8f9728	-1.1218004
126	0x3fb97a62	1.4490473
127	0x403423fe	2.8146968

fc2.weight f4 [128, 128]
0	0xbbcaeec0	-0.006193012
1	0xbdaaf8f7	-0.083482675
2	0xbd50beff	-0.050963398
3	0x3d12d18e	0.03584438
4	0xbcf596e6	-0.02997918
5	0x3d79e3be	0.061008207
6	0x3d8f1a5f	0.06987452
7	0x3c52a9b8	0.012857847
8	0xbbe50660	-0.0069892853
9	0xbce5d780	-0.02805686
10	0xbb927450	-0.004469432
11	0x3c83cc14	0.016088523
12	0xbd8a4595	-0.06751553
13	0xbcad0d24	-0.02112443
14	0xbd969272	-0.07352151
15	0x3d5e33f6	0.054248773
16	0xbd668f32	-0.056288905
17	0x3da55e7d	0.08074663
18	0xbcbaa738	-0.022784814
19	0xbd4f672b	-0.050635498
20	0x3d2df14e	0.042466454
21	0x3c57e3b8	0.013176851
22	0x3d7ab222	0.061205037
23	0x3d1723e2	0.036899455
24	0xbdae6210	-0.08514798
25	0x3d64fc6a	0.055904783
26	0xbc885a90	-0.016644746
27	0xbd2002b8	-0.039065093
28	0x3d65e9fe	0.056131355
29	0x3d8405db	0.06446429
30	0xbd9f1a7c	-0.07768723
31	0xbc02f270	-0.007992372
32	0x3d94a77d	0.07258508
33	0x3d0c367a	0.03423164
34	0x3d9880d5	0.07446448
35	0xbcf823ee	-0.03029057
36	0xbd47b744	-0.04875876
37	0x3d9ba907	0.07600599
38	0x3d16e7f2	0.036842294
39	0x3dadc681	0.08485127
40	0xbd1738ea	-0.03691951
41	0xbd6873f9	-0.056751225
42	0xbc29be10	-0.010360256
43	0xbdaa71b5	-0.08322469
44	0x3d0de900	0.034646034
45	0x3d85848b	0.06519421
46	0x3cadd1dc	0.021218233
47	0xbc0f1670	-0.008733377
48	0x3d338046	0.043823503
49	0xbd65cdf5	-0.05610462
50	0x3db114b7	0.08646529
51	0xbdb3fed4	-0.08788839
52	0xbdad6817	-0.08467119
53	0xbcab19c4	-0.02088631
54	0x3d93dd59	0.07219953
55	0x3c10ff68	0.008849956
56	0x3d0b0a16	0.033945166
57	0xbd84b03c	-0.064789265
58	0x3d0407c6	0.032233976
59	0xbc21d260	-0.009876817
60	0x3d111d18	0.035428137
61	0x3d7fafe6	0.06242361
62	0x3d1d5efe	0.03842067
63	0xbbf65f40	-0.007518679
64	0xbbb26900	-0.005444646
65	0xbd631041	-0.055435423
66	0xbd02f33c	-0.031970248
67	0x3d6b443a	0.057438113
68	0xbd112d1f	-0.03544342
69	0x3d60d726	0.05489268
70	0xbd0f8f55	-0.0350488
71	0xbca8a304	-0.020585544
72	0x3af68f40	0.0018811002
73	0xbda61d7d	-0.08111093
74	0xba675b80	-0.0008825585
75	0xbc11f7c0	-0.008909166
76	0xbc0218d0	-0.007940486
77	0xbc90bf00	-0.0176692
78	0x3d8eb627	0.069683366
79	0x3d859707	0.06522947
80	0xbd755fd4	-0.059905842
81	0x3d282d3a	0.041058756
82	0xbd8dfd08	-0.069330275
83	0xbd9a1b0a	-0.075246885
84	0x3cdd565c	0.027018718
85	0x3aaa4300	0.0012989938
86	0xbd28e4b2	-0.041233726
87	0xbdae9805	-0.08525089
88	0xbd0c2882	-0.03421832
89	0x3cf1d76c	0.029521666
90	0xbda78d40	-0.08181238
91	0xbdafdaa2	-0.08586623
92	0x3c37bb28	0.011214055
93	0xbd826836	-0.06367533
94	0xbd9e9664	-0.077435285
95	0xbd0b7d0f	-0.034054812
96	0xbc692778	-0.0142306015
97	0xbda47e43	-0.08031895
98	0xbd71be46	-0.05901935
99	0x3bbde7a0	0.005795434
100	0xbdaab234	-0.08334771
101	0xbc4b8b68	-0.012423374
102	0xbd69c4f4	-0.057072595
103	0xbd7afa8c	-0.061274096
104	0x3d0e4adc	0.03473936
105	0xbd8b5426	-0.068031594
106	0xbd892ec2	-0.066983715
107	0x3d4e76c6	0.05040624
108	0x3c8760c8	0.016525641
109	0x3da4db4d	0.08049641
110	0xbcc18ae8	-0.023625806
111	0xbd2edec1	-0.042692903
112	0xbc060588	-0.00818003
113	0x39ea7500	0.0004471913
114	0x3d8a0da9	0.06740887
115	0xbdb44f4a	-0.08804186
116	0xbbce3820	-0.0062933117
117	0x3d20260a	0.039098777
118	0xbd475e59	-0.04867396
119	0xbd37f774	-0.044913724
120	0x3d2ef62e	0.042715244
121	0xbdad7336	-0.0846924
122	0x3cab9304	0.020944126
123	0xbd8c248a	-0.06842907
124	0x3d33f4a2	0.043934472
125	0xbd9ac763	-0.07557561
126	0x3d5e9546	0.054341577
127	0xbdab5bdb	-0.083671294
128	0xbd9828a9	-0.0742963
129	0xbd286ccb	-0.041119378
130	0xbe23b4ce	-0.1598694
131	0xbdf1e955	-0.11812083
132	0x3e5c6aa5	0.21525057
133	0x3cd5a5f9	0.026080118
134	0x3e29c606	0.16579446
135	0xbf5e126b	-0.86746854
136	0x3e478088	0.19482625
137	0xbdfb5676	-0.122723505
138	0xbeeaac6b	-0.4583467
139	0xbecd77d9	-0.401305
140	0x3ec92281	0.39284137
141	0xbde5bb63	-0.11217382
142	0xbf417d27	-0.7558159
143	0xbb21cb85	-0.0024687957
144	0xbf2457fe	-0.64196765
145	0x3e4a3fd2	0.19750908
146	0x3eadbfd5	0.3393542
147	0x3d3aa42f	0.045566734
148	0xbdd2c8ee	-0.102922305
149	0xbd80f2aa	-0.062962845
150	0xbdc8c8a3	-0.098038934
151	0x3f20008c	0.62500834
152	0x3d158820	0.036506772
153	0xbd78df2b	-0.060759705
154	0x3d1ca413	0.03824241
155	0x3cb5fdc5	0.022215733
156	0x3f0273c6	0.50957906
157	0xbd11bd68	-0.035581023
158	0x3e774f4b	0.24151342
159	0xbf5aa5a3	-0.8540899
160	0xbea4dff4	-0.32202113
161	0xbe237133	-0.15961151
162	0xbe6a5fe3	-0.2288814
163	0x3d8d1045	0.06887869
164	0x3d6ef636	0.058340274
165	0x3d8e1b8b	0.06938847
166	0x3e3fa5ee	0.18715641
167	0x3e62ab44	0.22135645
168	0xbf5bffb3	-0.8593704
169	0xbccae000	-0.024765015
170	0x3e8389b1	0.25690988
171	0x3ea87e08	0.32908654
172	0x3e2d3e27	0.1691824
173	0xbda98288	-0.0827685
174	0xbe7dcb9c	-0.24784702
175	0x3e03a668	0.12856448
176	0x3dbe16f2	0.0928172
177	0x3e037312	0.12836865
178	0x3da85263	0.08218839
179	0xbde66404	-0.11249545
180	0x3b7c739c	0.0038521057
181	0xbcee494e	-0.029087689
182	0xbdc92614	-0.09821716
183	0x3d4e4ffc	0.050369248
184	0xbbffcc70	-0.0078063533
185	0xbdd6c176	-0.104861185
186	0xbd93224e	-0.071842775
187	0x3e60e4f8	0.21962345
188	0x3dfe9e2e	0.12432514
189	0xbf1e51aa	-0.6184336
190	0x3eef382a	0.46722537
191	0xbd1e086c	-0.03858225
192	0x3e584715	0.21120866
193	0x3de91a5f	0.11381983
194	0xbd34b13a	-0.04411433
195	0x3cb38e40	0.021918416
196	0x3d85a02d	0.06524692
197	0x3d0e07da	0.034675457
198	0x3e2c41d3	0.16821985
199	0xbe35103f	-0.17681979
200	0xbd9c30e6	-0.07626514
201	0x3dc6339a	0.09677811
202	0x3c1b9d2c	0.009497922
203	0xbc621511	-0.013798968
204	0x3f084c25	0.5324119
205	0x3e1b195c	0.15146393
206	0xbd26bcd0	-0.04070741
207	0x3e1a382a	0.15060487
208	0x3d931b8a	0.07182987
209	0xbef1d357	-0.47231552
210	0x3d346c8a	0.044048823
211	0x3ea297b0	0.31756353
212	0x3c7630d4	0.01502629
213	0x3e4544aa	0.19264475
214	0xbe48e416	-0.19618258
215	0xbdc00194	-0.09375301
216	0xbe1f1e5b	-0.15538923
217	0xbdb532e4	-0.08847597
218	0x3e20da31	0.15708233
219	0xbf131857	-0.57459015
220	0xbf162bdc	-0.58660674
221	0xbeb4522a	-0.35218936
222	0x3ee150ee	0.44007057
223	0xbda783f8	-0.08179468
224	0x3d84e0c4	0.06488183
225	0x3ea97be8	0.33102345
226	0xbed4cbc9	-0.41561726
227	0x3d4b3977	0.04961535
228	0x3f09d117	0.5383467
229	0xbb0aedc0	-0.002119884
230	0x3cf37c65	0.029722402
231	0x3ed2b405	0.4115297
232	0xbc8df998	-0.01733093
233	0xbdedb631	-0.11607016
234	0x3d9b5a88	0.07585627
235	0x3d9aac82	0.075524345
236	0x3e31960e	0.17342398
237	0x3d3fc5df	0.046819564
238	0x3e515b2b	0.20444934
239	0xbf4250f7	-0.7590479
240	0x3ced9570	0.029001921
241	0x3eb144fd	0.34622946
242	0x3eb537a6	0.3539402
243	0x3d39f4c9	0.04539946
244	0x3de4faa7	0.11180621
245	0x3e5b1520	0.21394777
246	0x3dbd9ee7	0.09258824
247	0x3f237a79	0.63858753
248	0xbe3a463e	-0.18190858
249	0xbb68f753	-0.0035547807
250	0x3dbeb77e	0.09312342
251	0xbda25ce7	-0.07927876
252	0x3e6e3135	0.23260958
253	0x3ebbcfb9	0.36681917
254	0xbf5edb0a	-0.8705298
255	0x3d06201c	0.032745466

fc2.bias f4 [128]
0	0x3c8bdd98	0.017073438
1	0xbf900ca7	-1.1253861
2	0x403ccea7	2.950113
3	0xbf7bec26	-0.9840721
4	0xbf7523ae	-0.9575757
5	0x40376d8d	2.8660614
6	0x402d9ee6	2.7128234
7	0x3bf4d28a	0.0074713873
8	0xbdad1b20	-0.08452439
9	0x402c3f71	2.6913722
10	0x3d350a9f	0.044199582
11	0x403b0afa	2.922545
12	0xbd996c86	-0.07491402
13	0xbb51ca58	-0.0032011475
14	0xbf9642c8	-1.173913
15	0x3d7b94de	0.061421268
16	0xbf8cb7e0	-1.0993614
17	0xbf5d14a5	-0.86359626
18	0xbda48167	-0.08032494
19	0x3c67b668	0.01414261
20	0xbf70da06	-0.9408268
21	0xbf7d94fd	-0.99055463
22	0xbf6b28bf	-0.9185905
23	0x3c47cb43	0.012194457
24	0xbefb651b	-0.49100575
25	0x40372293	2.8614852
26	0x4034d037	2.8252084
27	0xbf72663d	-0.94687253
28	0x403f9aa9	2.9938147
29	0xbf7ba511	-0.98298746
30	0x3cba4518	0.022738025
31	0xbd398e63	-0.045301806
32	0xbf588f95	-0.8459409
33	0xbf797cea	-0.9745623
34	0x3cd1f55e	0.025629696
35	0xbf52863f	-0.82236093
36	0xbce89c9c	-0.02839499
37	0x4037d185	2.872163
38	0xbf7afb44	-0.9803965
39	0xbf8e15f0	-1.1100445
40	0xbf5ce80b	-0.8629157
41	0xbf2a0ed3	-0.6642887
42	0xbf92fa6b	-1.1482671
43	0x3ce9818c	0.028504156
44	0xbf989f84	-1.192368
45	0xbf6e00d2	-0.9297
46	0xbf91da29	-1.1394702
47	0x4039f5fe	2.9056392
48	0xbf940033	-1.1562561
49	0x4022aa6c	2.5416517
50	0x4040a2b8	3.0099316
51	0x3d730051	0.059326474
52	0xbd873986	-0.066027686
53	0xbf880b60	-1.0628471
54	0x3eafcb73	0.34334907
55	0xbf8a3e3b	-1.0800241
56	0xbf1409c4	-0.578274
57	0xbf7f9552	-0.9983722
58	0xbf83e201	-1.0303346
59	0xbf90b999	-1.130664
60	0xbf9ee6a0	-1.2414131
61	0xbc6aa8cb	-0.01432247
62	0xbf32c9ac	-0.69838977
63	0x3f9699a2	1.1765635
64	0xbf860553	-1.0470375
65	0xbf510ed8	-0.81663275
66	0xbf5ef8ea	-0.8709856
67	0x3c876ba7	0.016530825
68	0x3d9cb47b	0.076516114
69	0xbd9c6565	-0.07636527
70	0x3d3a2288	0.045443088
71	0x40153d92	2.331883
72	0xbf87897b	-1.0588831
73	0xbd82769d	-0.0637028
74	0x4040f4b1	3.0149348
75	0x4029f123	2.6553428
76	0xbf8c015f	-1.0937918
77	0x4034239e	2.814674
78	0xbf81740f	-1.0113543
79	0xbf7598f0	-0.9593649
80	0x3b5819ce	0.0032974365
81	0x3eaa3ba8	0.3324864
82	0x4001eec7	2.0301988
83	0x3d74ab22	0.059733517
84	0xbf9b7fbf	-1.214836
85	0xbf90bb20	-1.1307106
86	0xbf4b7d93	-0.79488486
87	0x40326bbd	2.7878258
88	0xbf9bf4d6	-1.2184093
89	0xbf87b2be	-1.0601423
90	0x3cf65424	0.030069418
91	0xbf40d38b	-0.7532279
92	0xbf6cbee3	-0.9247877
93	0xbf85309d	-1.0405461
94	0xbdaa2407	-0.08307653
95	0x3d186770	0.03720802
96	0x4037668b	2.8656337
97	0x402603c8	2.5939808
98	0xbe9fa550	-0.3118081
99	0xbf8c47d1	-1.0959417
100	0x403cc1c5	2.9493268
101	0xbf7dbf95	-0.99120456
102	0xbf564a03	-0.8370668
103	0xbf737301	-0.9509736
104	0xbe60846a	-0.21925512
105	0x4016bda0	2.3553238
106	0xbf74bfc0	-0.9560509
107	0xbf82764a	-1.0192349
108	0xbd118529	-0.035527382
109	0xbc034300	-0.0080115795
110	0x3f28b18d	0.6589592
111	0x403d7841	2.9604647
112	0xbf505b3c	-0.8138921
113	0xbf6d24a4	-0.92634034
114	0x3c8fe4a1	0.017565073
115	0xbd7197ec	-0.058982775
116	0x3d489046	0.048965715
117	0xbf720858	-0.9454398
118	0xbf86ab35	-1.0520998
119	0xbd4d0963	-0.05005778
120	0x4011b49d	2.2766488
121	0x402e6da0	2.725441
122	0x4012b93f	2.2925565
123	0x4026eea0	2.6083145
124	0xbf1b3a7f	-0.6063613
125	0xbf8d45a7	-1.1036881
126	0x3cced4d7	0.025247974
127	0xbf85ad05	-1.0443426

fc3.weight f4 [21, 128]
0	0xbd87ec44	-0.06636861
1	0xbf282f9c	-0.65697646
2	0x3e7b8408	0.24562085
3	0xbf667ff4	-0.9003899
4	0xbe42eb6f	-0.19035123
5	0x3e519ad2	0.20469216
6	0x3e414fb6	0.18878064
7	0x3e134bf5	0.14384444
8	0x3d7538de	0.059868686
9	0x3e5aaa81	0.21354105
10	0xbd3a820b	-0.045534175
11	0x3e9ed4c0	0.3102169
12	0x3d14067a	0.03613899
13	0xbdb1a5df	-0.086742155
14	0xbf720d17	-0.94551224
15	0x3e1249de	0.1428599
16	0xbf2bf54c	-0.6717117
17	0xbe88d901	-0.2672806
18	0x3d8c1c77	0.06841367
19	0x3d60ceaa	0.05488459
20	0xbed8e00b	-0.4235843
21	0xbf29eade	-0.66374004
22	0xbeb16492	-0.34647042
23	0x3b4112c0	0.0029460639
24	0x3a33e710	0.0006862739
25	0x3eb296d8	0.3488071
26	0x3e81ea96	0.25374287
27	0xbf17d946	-0.5931591
28	0x3e7e2d9e	0.24822089
29	0xbe794e7b	-0.24346344
30	0xbd1dcab9	-0.03852341
31	0xbca802c4	-0.020509131
32	0xbe0ef6c6	-0.13961324
33	0xbe45cef1	-0.19317223
34	0xbd4b696b	-0.04966108
35	0xbe38bbaa	-0.18040338
36	0xbc991c77	-0.01869033
37	0x3ea5f006	0.32409686
38	0xbe850d92	-0.25986916
39	0xbf3f90f7	-0.74830574
40	0xbf07bcac	-0.53022265
41	0xbdbe630a	-0.09296234
42	0xbf329c7b	-0.6977002
43	0xbc894ef5	-0.016761282
44	0xbf5f42a9	-0.8721109
45	0xbecb466b	-0.39702162
46	0xbf4314ac	-0.7620342
47	0x3eafcb7e	0.3433494
48	0xbf3b45a4	-0.7315314
49	0x3f4dbcf0	0.8036642
50	0x3e7cb632	0.24678877
51	0x3be5a070	0.007007651
52	0x3c2f9080	0.010715604
53	0xbf093ec6	-0.5361141
54	0x3e94aa4c	0.29036176
55	0xbf3ad45a	-0.7298027
56	0xbc051218	-0.00812199
57	0xbf7ed21d	-0.9953936
58	0xbe773035	-0.24139483
59	0xbf3a579f	-0.7278995
60	0xbf3f5578	-0.7473979
61	0x3d148fe3	0.036270034
62	0xbdbc7eb4	-0.09203854
63	0xbc5528bb	-0.013010199
64	0xbe96887b	-0.29401
65	0xbe07428b	-0.13208978
66	0xbe30c3c3	-0.17262177
67	0xbd69b1c3	-0.057054292
68	0xbd0e61da	-0.034761287
69	0x3daa2a75	0.08308879
70	0x3d400908	0.046883613
71	0x3e99ad12	0.30014855
72	0xbea67888	-0.32513833
73	0xbd0ee788	-0.034888774
74	0x3e818e88	0.25304055
75	0x3e92f005	0.28698745
76	0xbf51f33f	-0.8201179
77	0x3e93f4d1	0.28897718
78	0xbebf2416	-0.3733222
79	0xbeb893d4	-0.36050284
80	0xbdb2f964	-0.08738974
81	0x3efc4d90	0.49277925
82	0x3f9390b5	1.1528536
83	0x3e36ed72	0.17864016
84	0xbf5eaff4	-0.86987233
85	0xbf4844de	-0.78230083
86	0xbdce134e	-0.10062276
87	0x3e92b02b	0.2865003
88	0xbf43a072	-0.76416695
89	0xbe54399f	-0.20725106
90	0xbbc04880	-0.0058680177
91	0xbe3aaefb	-0.18230812
92	0xbe6e985d	-0.2330031
93	0xbea0aa64	-0.31379998
94	0x3d37d151	0.044877354
95	0xbd04b8f4	-0.032402948
96	0x3ea190c8	0.31555772
97	0x3e404a99	0.18778457
98	0x3df1278b	0.1177512
99	0xbf3aa9d3	-0.7291538
100	0x3e379993	0.17929678
101	0xbee053ae	-0.43813843
102	0xbe44d690	-0.19222474
103	0xbeab72b5	-0.33485952
104	0x3df7bd24	0.120966226
105	0x3f7e8bac	0.9943187
106	0xbf03812c	-0.51368976
107	0xbf2e0071	-0.67969424
108	0xbd60639f	-0.054782506
109	0x3d615786	0.05501511
110	0x3e961c3e	0.29318422
111	0x3e9a73e7	0.3016655
112	0xbe49fca2	-0.19725278
113	0xbf0cb42a	-0.5496241
114	0xbc682128	-0.014168061
115	0x3cf24f3e	0.029578801
116	0x3d7cc23e	0.06170868
117	0xbeae12c9	-0.33998707
118	0xbe95eaa5	-0.29280582
119	0x3d97059b	0.07374116
120	0x3f948bd0	1.1605167
121	0x3ea1675d	0.31524172
122	0x3ea73044	0.3265401
123	0x3e872174	0.2639271
124	0xbd00dea1	-0.031462315
125	0xbf205bf9	-0.6264034
126	0xbd343c9e	-0.04400312
127	0xbf4b0a04	-0.7931216
128	0x3d6c62ae	0.057711296
129	0xbf1e5d7c	-0.61861396
130	0x3eaea9bb	0.3411387
131	0xbf274a7e	-0.6534804
132	0xbe9128b9	-0.2835138
133	0x3ea13c1e	0.31491178
134	0x3e8fc4bb	0.2807978
135	0xbc7cdb8d	-0.015433204
136	0xbcb6a982	-0.022297624
137	0x3e518660	0.20461416
138	0x3c1fe760	0.009759754
139	0x3e9283f6	0.28616303
140	0x3da48973	0.08034029
141	0x3d067052	0.03282196
142	0xbf1ac7ea	-0.60461295
143	0x3d3253b2	0.04353685
144	0xbf110042	-0.5664102
145	0xbeaab321	-0.3333979
146	0x3a067600	0.00051292777
147	0xbda66000	-0.08123779
148	0xbee5ed69	-0.44907692
149	0xbf3e77b3	-0.74401397
150	0xbe67d63a	-0.22640315
151	0x3d8c7043	0.0685735
152	0xbe002cd4	-0.125171
153	0x3e8f7c3a	0.28024465
154	0x3ea2f18e	0.31824917
155	0xbf01c70e	-0.5069436
156	0x3eb328a7	0.34991953
157	0xbe1c1b54	-0.152448
158	0xbb282f40	-0.0025662929
159	0xbd88c9d7	-0.06679123
160	0xbe3762ec	-0.1790883
161	0xbe68552c	-0.2268874
162	0x3cacd81c	0.021099143
163	0xbdeb55fb	-0.11491009
164	0xbca5d6c0	-0.020244002
165	0x3eb74450	0.35794306
166	0xbed6408c	-0.4184612
167	0xbf18c001	-0.59667975
168	0xbef3f14f	-0.4764504
169	0xbe01b257	-0.12665688
170	0xbf18639d	-0.59527
171	0x3c94f166	0.018181514
172	0xbf4d0e02	-0.800995
173	0xbee557d5	-0.44793573
174	0xbf117a0a	-0.5682684
175	0x3e6fa3c7	0.2340232
176	0xbf04b248	-0.51834536
177	0x3f2d9088	0.6779866
178	0x3e5b9817	0.21444736
179	0xbd8ea015	-0.06964127
180	0x3d0e704e	0.03477507
181	0xbe8677b6	-0.26263207
182	0x3c74093a	0.014894778
183	0xbf3a0188	-0.72658587
184	0xbe28ce8f	-0.16485046
185	0xbf235d72	-0.6381446
186	0xbe2c8251	-0.16846587
187	0xbf453c52	-0.77045166
188	0xbef009f7	-0.46882603
189	0x3d8540e9	0.06506521
190	0xbd7d3478	-0.061817616
191	0x3e83f22a	0.25770694
192	0xbe9d0ff4	-0.30676234
193	0xbe935576	-0.2877614
194	0xbdefed7e	-0.1171522
195	0x3c9d30b7	0.019188268
196	0xbd372930	-0.044717014
197	0xbc3e3720	-0.0116098225
198	0x3d7a1fca	0.061065473
199	0x3eacf580	0.33781052
200	0xbea2d8c1	-0.31805995
201	0xbda5b1c5	-0.080905475
202	0x3e814903	0.25251016
203	0x3ea42a9c	0.32063758
204	0xbf2d6b56	-0.67741907
205	0x3ea60384	0.32424557
206	0xbe5c45be	-0.2151098
207	0xbea27ff0	-0.31738234
208	0x3d5225ca	0.05130557
209	0x3f21fd71	0.63277346
210	0x3f0f7d2a	0.5605036
211	0xbd3c9892	-0.04604394
212	0xbf44349b	-0.7664277
213	0xbf29aa7d	-0.6627577
214	0xbe1346e5	-0.14382513
215	0x3ec56c9c	0.38559425
216	0xbf20b165	-0.6277068
217	0xbe7361f1	-0.2376783
218	0xbcdb1230	-0.02674207
219	0xbe2f4247	-0.17115127
220	0xbe5330b1	-0.20624043
221	0xbe438cee	-0.19096729
222	0x3d753500	0.059864998
223	0x3d72a1de	0.0592364
224	0x3e7aa355	0.24476369
225	0x3e5b5611	0.2141955
226	0xbe09c159	-0.13452663
227	0xbf0ebaed	-0.55753976
228	0x3e8b1e58	0.27171588
229	0xbed613ab	-0.4181188
230	0xbe7fc54c	-0.24977607
231	0xbeb27aab	-0.34859213
232	0x3b27bb4f	0.0025593822
233	0x3f39b001	0.72534186
234	0xbec65539	-0.38736895
235	0xbf14837b	-0.58013123
236	0x3c6d5ab0	0.014486954
237	0xbd708bb0	-0.058726966
238	0x3e1e8ddc	0.15483803
239	0x3ebd7a34	0.37007296
240	0xbe1c7318	-0.1527828
241	0xbf219231	-0.63113695
242	0xbc368638	-0.011140399
243	0x3d6ac16e	0.057313375
244	0xbb37cf40	-0.0028047115
245	0xbe370d9f	-0.1787629
246	0xbea997ff	-0.33123776
247	0x3d3546a6	0.04425683
248	0x3f48b75f	0.784048
249	0x3e87bf96	0.26513356
250	0x3e9d5e58	0.3073604
251	0x3e934c3a	0.28769094
252	0xbdb65554	-0.08902994
253	0xbee6202b	-0.44946417
254	0xbd124a27	-0.03571525
255	0xbf072fbf	-0.5280723

fc3.bias f4 [21]
0	0x3fb87c1a	1.4412873
1	0x3fa463c0	1.2842941
2	0x3f24efe7	0.6442856
3	0x3f3c98e3	0.73670787
4	0x3f55ddc3	0.83541507
5	0x3f4ac6a6	0.79209363
6	0x3f52cf9d	0.8234804
7	0x3f61c493	0.88190573
8	0x3f704ddb	0.938688
9	0x3fb17a4f	1.3865451
10	0x3f48263f	0.7818336
11	0x3f3fca9c	0.7491853
12	0x3f404cd0	0.75117207
13	0x3f500d77	0.81270546
14	0x3f2e23ba	0.68023264
15	0x3f42b82a	0.7606226
16	0x3f32f990	0.6991205
17	0x3f2cac3c	0.6745031
18	0x3f20656d	0.62654763
19	0x3f0abbf5	0.5419305
20	0x3f32ef4f	0.69896406
