model_checkpoints/model_ep_500.pth (torch, 83135 bytes, 6 tensors)

fc1.weight f4 [128, 7]
00000000: 8073 39bb 6e9f 4f3e 1e46 9fbe d46a 8ebe
00000010: 8611 15be a892 cf3d 8063 f5bb e179 0b3f
00000020: 12a3 253f b421 873f 934f 373f f770 283f
00000030: 9245 e13c 34d6 7bbe e50b bfbc 6a93 233e
00000040: 1b57 903e 6167 ec3e 8b0a 2a3e fa58 223e
00000050: dc51 ae3e 628d 003f d05e ce3e 081e 873f
00000060: 1cbc 2e3f da8a 473f ebba 423f afd0 8dbe
00000070: 1e9f 8c3d 2401 afbe 557b c6be 9240 53bd
00000080: 90df fc3d a867 163e 27e0 0d3e 9c0a e2bc
00000090: 08ee 9a3e 5d50 113f d2c5 173f 733e 2f3f
000000a0: 7eda 3d3f 6aed 4d3e 2e16 e23d 19bd fb3d
000000b0: a366 febd 7732 55be c221 d5be 181f 25bf
000000c0: 9afe 2abf 7029 febb c7dd a73e 7700 623e
000000d0: e090 98be 9d78 babf e055 babf 8a0a 8cbf
000000e0: f8d1 c33d 7f36 823e 302e 573c 901d 6bbd
000000f0: 335f dbbe b413 42bf bd1b 4fbf ce08 833e
00000100: 32e0 333f 2368 3e3f 9020 4b3f 0200 493f
00000110: b60f 0a3f 36f2 a53e 007d 6cbc 8e6f 9c3e
00000120: b337 263f a2c2 543f 00c5 f13e 40c3 fa3e
00000130: e34f 233e 7b8b b6bc e2d9 c93d dc46 50be
00000140: 1859 bebe 8a27 043f eae1 023f 69ba c3be
00000150: 762e e13d 3511 053f 9a96 883e 5bdf 7b3d
00000160: 0ff5 d2be 1328 8ebf ab50 fdbe 81ea c03e
00000170: 2e83 593f 5acf 7d3f 7e0d d03e e6d6 e13e
00000180: b2d6 0b3f 0c17 8d3d bb0a dbbc 22ac a8bd
00000190: 496b 033f aeb6 053f c76a 1f3e 4996 473e
000001a0: 718c 8bbe 9cf4 043e bb9e 2fbf 1869 c9be
000001b0: 1670 6dbd 331a 693f 15f7 433f 9edc 5f3f
000001c0: 947c fcbc d5da 483e f986 333e 45d3 31bd
000001d0: 1bb9 803e b0db f33e a4a4 a13e 3f06 cc3d
000001e0: 7e6b 3b3f d35c bb3e 5752 b13d 9b0b d0be
000001f0: 8737 a3bf fb20 64bf db78 1a3d 3637 193e
00000200: b908 d9bd 14e3 47bf 5dc4 58bf 8a52 2bbf
00000210: 3d4d e5be bcd5 483e ad18 7ebd f2fb c2bd
00000220: 2003 3d3b 7221 503f 9691 763f dc49 693f
00000230: f38b 343f 50df cc3f 0c49 e73f 4a18 933f
00000240: 0c3f 473e cca0 a0bd 61e2 1c3e 8092 20bb
00000250: e85f 40be 834b 94be a21a b5be a354 a3be
00000260: 9402 9dbd ae40 543e 681e d53e d1dc d93e
00000270: 971f a33f 97fd 1b3f 9ba6 133f 299d ca3d
00000280: 057a f1bd 1f94 883d 6538 2dbf e8f8 83bf
00000290: 0bcd 69bf 6df5 9fbe 3ed9 8cbe f53a f93e
000002a0: d3d9 c7bc 0e46 f43e c427 273f 1dd7 293f
000002b0: 482b 6a3f f931 633f 89f0 ba3d 13f8 cf3e
000002c0: 748f 0d3f 08d4 473f da4f a33f 232b 033f
000002d0: bd0c c03e db3c 2cbe 6f92 243f 5778 2c3f
000002e0: 5f13 cb3e 42af 54bd f574 aebe 6b28 f83d
000002f0: f583 55be 82df 893e d9bd 583f 910a e83e
00000300: 2b93 afbe 3426 2dbf e65a 84bf 6c81 29bf
00000310: d99d 993d 48f1 a5be 0f99 38bf d0d9 cfbe
00000320: a676 023e 4b9d cd3e b03d ab3d 33da 84be
00000330: 98bc 60be 1773 873e 3220 0bbe e73a a33e
00000340: 7af4 0b3e 0009 443d 976e 853d c73f 033f
00000350: 6834 c33e 448b 323e 4629 6bbf 4da2 67bf
00000360: f843 66bf 7ec2 97bc 3106 053f 8d27 1ebd
00000370: 30f4 8b3e 76c7 2e3f 9f90 bf3e 4e54 e83d
00000380: 4bc2 83bb a607 63be 1673 bfbe b4c6 d2bc
00000390: d532 613d 1b8d 013e 97ee 4e3e 527e f53e
000003a0: 5da3 643f 4f70 bd3f 85bc a43f dbbb c13e
000003b0: 2756 913e 8716 dfbe 4aa8 d9bc 5ffb 3d3e
000003c0: 1d0a b33e ac67 013f bc9c b03e 5c1c e53e
000003d0: b011 b83e 4926 bbbe dde8 8b3e 3306 a0be
000003e0: c0b2 aa3b e89a 83bd 58d7 4bbe a09e 4c3d
000003f0: 7c3f fb3e a71c e33e 73f0 233f f675 313f
-0.0028297603 0.20275661 -0.31108183 -0.27815878 -0.14557466 0.10135394 -0.007488668 0.5448285
0.6470195 1.055716 0.71605796 0.6579737 0.027498994 -0.24593431 -0.023321101 0.15974203
0.28191456 0.46172622 0.16605584 0.15854254 0.3404683 0.50215733 0.4030671 1.055604
0.6825578 0.77946246 0.76066464 -0.27698275 0.06866287 -0.34180558 -0.3876597 -0.05157525
0.12347329 0.14687979 0.13855039 -0.02759295 0.30259728 0.5676325 0.59286225 0.68454665
0.7416152 0.20110098 0.11039387 0.12291927 -0.1242192 -0.20820032 -0.41627318 -0.6450057
-0.6679474 -0.0077564046 0.3278639 0.2207049 -0.2979803 -1.4568058 -1.4557457 -1.0940716
0.09561533 0.25432202 0.013133571 -0.05740124 -0.4284607 -0.75811315 -0.809017 0.25592655
0.7026397 0.7437765 0.7934656 0.78515637 0.53930223 0.32411355 -0.014434099 0.3055386
0.6492874 0.83109486 0.47220612 0.4897709 0.15948443 -0.022283306 0.09856011 -0.2033953
-0.37177348 0.5162283 0.5112597 -0.38228157 0.1099519 0.5197938 0.266774 0.061492305
-0.4120259 -1.110598 -0.49475607 0.37678912 0.8496579 0.9914452 0.40635294 0.44109267
0.54624474 0.068891615 -0.026738515 -0.08235957 0.5133558 0.5223187 0.15568076 0.19490923
-0.27255586 0.12983936 -0.6860158 -0.39337993 -0.05796822 0.910556 0.7654889 0.8744601
-0.030821122 0.19614728 0.17531957 -0.043414373 0.25141224 0.47628546 0.31570923 0.09962129
0.73210895 0.36594257 0.08658283 -0.40633854 -1.2751321 -0.89112824 0.037712913 0.14962468
-0.10597367 -0.7808087 -0.84674627 -0.6692282 -0.4478549 0.19612783 -0.06203525 -0.09520711
0.0028840974 0.81301033 0.96315897 0.91128325 0.70526046 1.600565 1.8069167 1.1491787
0.19457644 -0.078431696 0.15320732 -0.0024501383 -0.18786585 -0.2896386 -0.35371882 -0.3190051
-0.07666507 0.20727798 0.4162476 0.42551282 1.2744015 0.6093382 0.57676095 0.09893257
-0.117908515 0.06668877 -0.67664176 -1.0310335 -0.91328496 -0.31241933 -0.27509493 0.48677793
-0.024395859 0.47709697 0.6529505 0.6634386 0.9147229 0.8874813 0.0912791 0.40618953
0.5529702 0.7805791 1.2758744 0.51237696 0.3750972 -0.1682009 0.6428594 0.67371124
0.39663216 -0.05192495 -0.34073606 0.12117084 -0.20851119 0.26928335 0.84664685 0.45320562
-0.34291968 -0.6763642 -1.034024 -0.6621311 0.0750081 -0.32410645 -0.7210855 -0.40595865
0.12740573 0.40159068 0.08361375 -0.25947723 -0.21946943 0.26454994 -0.135865 0.31880876
0.13667479 0.047860146 0.06515234 0.5126919 0.3812592 0.17435938 -0.91859853 -0.90482026
-0.8994746 -0.018525358 0.5196257 -0.038611937 0.27334738 0.68273103 0.37415025 0.11344205
-0.0040209643 -0.22170886 -0.3739249 -0.025729515 0.054980118 0.12651484 0.20208202 0.47947937
0.8931177 1.4799899 1.2870032 0.37838635 0.28386042 -0.43571874 -0.026569504 0.18552922
0.34968653 0.50548816 0.3449458 0.447482 0.35950994 -0.36552647 0.27326098 -0.3125473
0.005209297 -0.064260304 -0.19906366 0.049955964 0.49071872 0.44357798 0.6403877 0.6932062

fc1.bias f4 [128]
00000000: 198d abbe e3c0 1b40 7a69 e63f e60a 1540
00000010: 8367 10be 1e3a f73f 96b2 07bf 1607 cd3f
00000020: 952f 27bf 269d 0340 b780 993f 42ec a63f
00000030: 327a 6dbf c7ab 0540 c9f4 e13f 6e9b c33f
00000040: 5074 cf3f 370d 57bf fd50 01bf e59c eb3f
00000050: f44d 1a40 8a78 8cbe 364d 2840 745c 3abf
00000060: adcc e13f 19f0 ea3f c0eb 2cbe 376d f9be
00000070: 88ee cebe e413 afbe 8d6a 26bf f87d 913f
00000080: 4760 ec3f 4e00 1c40 556f fd3f 98ce bebe
00000090: b727 f33f 2e32 fc3f 3881 00bf 8aca 34bf
000000a0: cd58 ce3f 347d f33f dcd3 06bf 9bea 9dbf
000000b0: d2d0 11bf b211 0440 f57e 953e 9e04 f63f
000000c0: a38b 66bf c64b 7abe c06b b7be ef09 fe3f
000000d0: d64f 583e d01e fc3f ce89 f33f 8ad2 0c40
000000e0: cd36 9ebe 29a6 f73f 162a 2340 98cd 25bf
000000f0: 152a 45bf 19e4 9d3f d299 11bf a939 e63f
00000100: 58ab 84bf 9e01 a1be f58f 05bf 68f8 bfbe
00000110: be6e c0be 101d 213f ec4a 07bf 355d 9c3f
00000120: 096c 2740 3d45 203f 8fdd eabe ad61 eb3f
00000130: 23cb 93be 1c3a 25bf a5be a93f bb0f e53f
00000140: e98f da3f 3621 943f 8889 c0be bc9b 9cbe
00000150: 510c 1040 e8e8 b1bf 2584 d63f eb87 a23e
00000160: 0837 1a40 cf78 a73f 46b5 99bf 6900 b73f
00000170: c993 a63f 7cc6 f03f e3aa febe 6346 2b40
00000180: 1344 25bf 0f29 c23f 89dd eb3f 1fac 1d40
00000190: c401 f4be 96ef 27bf 9bf8 0d40 1b16 093d
000001a0: ecce 1440 7018 0340 a37f ce3f 3141 a2be
000001b0: fec1 8b3f 134c 2840 7159 82bf 926d 8c3f
000001c0: 9002 bdbd 7662 87bf 92fb 39bf 5d0a 1f40
000001d0: acbb 443e cbcb 9bbf 9297 34bf 9176 eabe
000001e0: 09a7 b5be c546 e13f 7f14 44bf a570 3240
000001f0: 0041 11bf f678 90bf b6a3 923f 80fa 1a40
-0.33506086 2.4336479 1.8000939 2.3287902 -0.14101987 1.9314611 -0.53006876 1.6017787
-0.6530698 2.0564666 1.1992406 1.304085 -0.9276458 2.0886095 1.7652828 1.5281808
1.6207371 -0.8400454 -0.50514203 1.8407255 2.411008 -0.27435714 2.6297126 -0.7279732
1.7640587 1.8354522 -0.16886806 -0.48716137 -0.4041636 -0.34194863 -0.65006334 1.1366568
1.8466882 2.4375186 1.9799601 -0.37266994 1.8996495 1.9702814 -0.5019717 -0.7062155
1.612085 1.9022584 -0.5266702 -1.2337221 -0.5695926 2.06358 0.29198423 1.9220159
-0.9005682 -0.24442968 -0.35824394 1.9846781 0.21124205 1.9696903 1.902643 2.2003503
-0.30901185 1.9347583 2.5494437 -0.64766836 -0.7701734 1.2335235 -0.56875336 1.7986346
-1.036479 -0.31446546 -0.52172786 -0.37494206 -0.3758449 0.6293497 -0.52848697 1.2215945
2.615969 0.6260565 -0.4587216 1.8389183 -0.2886592 -0.6454179 1.3261305 1.7895426
1.7075168 1.1572635 -0.37604928 -0.30587566 2.2507517 -1.3899202 1.6759077 0.31744322
2.4096088 1.3083743 -1.2008445 1.4297 1.301385 1.8810573 -0.4973975 2.676171
-0.64557 1.516878 1.8426982 2.4636304 -0.47657597 -0.65599954 2.2182987 0.033468347
2.3251295 2.0483665 1.6132702 -0.31690362 1.0918577 2.6296432 -1.0183545 1.0970938
-0.092290044 -1.0576923 -0.7264949 2.4850075 0.19212216 -1.2171568 -0.7054378 -0.45793584
-0.35479 1.7599722 -0.76593775 2.7881253 -0.5673981 -1.1286914 1.1456211 2.4215393

fc2.weight f4 [128, 128]
00000000: c0ee cabb f7f8 aabd ffbe 50bd 8ed1 123d
00000010: e696 f5bc bee3 793d 5f1a 8f3d b8a9 523c
00000020: 6006 e5bb 80d7 e5bc 5074 92bb 14cc 833c
00000030: 9545 8abd 240d adbc 7292 96bd f633 5e3d
00000040: 328f 66bd 7d5e a53d 38a7 babc 2b67 4fbd
00000050: 4ef1 2d3d b8e3 573c 22b2 7a3d e223 173d
00000060: 1062 aebd 6afc 643d 905a 88bc b802 20bd
00000070: fee9 653d db05 843d 7c1a 9fbd 70f2 02bc
00000080: 7da7 943d 7a36 0c3d d580 983d ee23 f8bc
00000090: 44b7 47bd 07a9 9b3d f2e7 163d 81c6 ad3d
000000a0: ea38 17bd f973 68bd 10be 29bc b571 aabd
000000b0: 00e9 0d3d 8b84 853d dcd1 ad3c 7016 0fbc
000000c0: 4680 333d f5cd 65bd b714 b13d d4fe b3bd
000000d0: 1768 adbd c419 abbc 59dd 933d 68ff 103c
000000e0: 160a 0b3d 3cb0 84bd c607 043d 60d2 21bc
000000f0: 181d 113d e6af 7f3d fe5e 1d3d 405f f6bb
00000100: 0069 b2bb 4110 63bd 3cf3 02bd 3a44 6b3d
00000110: 1f2d 11bd 26d7 603d 558f 0fbd 04a3 a8bc
00000120: 408f f63a 7d1d a6bd 805b 67ba c0f7 11bc
00000130: d018 02bc 00bf 90bc 27b6 8e3d 0797 853d
00000140: d45f 75bd 3a2d 283d 08fd 8dbd 0a1b 9abd
00000150: 5c56 dd3c 0043 aa3a b2e4 28bd 0598 aebd
00000160: 8228 0cbd 6cd7 f13c 408d a7bd a2da afbd
00000170: 28bb 373c 3668 82bd 6496 9ebd 0f7d 0bbd
00000180: 7827 69bc 437e a4bd 46be 71bd a0e7 bd3b
00000190: 34b2 aabd 688b 4bbc f4c4 69bd 8cfa 7abd
000001a0: dc4a 0e3d 2654 8bbd c22e 89bd c676 4e3d
000001b0: c860 873c 4ddb a43d e88a c1bc c1de 2ebd
000001c0: 8805 06bc 0075 ea39 a90d 8a3d 4a4f b4bd
000001d0: 2038 cebb 0a26 203d 595e 47bd 74f7 37bd
000001e0: 2ef6 2e3d 3673 adbd 0493 ab3c 8a24 8cbd
000001f0: a2f4 333d 63c7 9abd 4695 5e3d db5b abbd
00000200: a928 98bd 2af7 23bd d7ad bbbd ab02 f0bd
00000210: 442a 543e 1107 ff3d 857c 1f3e dc6a 65bf
00000220: 17ae 3c3e a5b6 f0bd f052 bbbe ea51 a1be
00000230: 94bf c63e 95fc dfbd 8127 30bf 1f8a 13ba
00000240: 5852 10bf a357 473e f8d6 973e 1116 4a3d
00000250: c277 cfbd aaf2 80bd d663 c4bd 3fba 173f
00000260: 605d 163e 6d1f 75bd d31a 143d 42c8 a53c
00000270: e90f ff3e 68bd 11bd 532d 633e 8390 33bf
00000280: af92 9ebe 29cd 21be 85fa 1cbe 4510 8d3d
00000290: a494 6f3d 260f 3a3e 6988 2f3e 334d 4e3e
000002a0: 9bf9 7fbf 881f abbc 1a4f 7f3e 9b82 a23e
000002b0: 7c08 293e e405 a7bd 3acc a3bd a460 763e
000002c0: c03e bb3d 00f1 013e 6352 a83d 9d87 e2bd
000002d0: 1d30 1f3b b3c5 e9bc 1b77 c3bd 4fcd 543d
000002e0: 70cc ffbb b28a d2bd 4e9d 90bd f8ca 513e
000002f0: 64a5 f23d 5bb8 06bf 1a6b e43e 8d39 3c3d
00000300: fbe2 543e 6fc3 e33d 794b 64bd 408e b33c
00000310: 2da0 853d bdd8 0d3d 1e55 293e 13b2 08bd
00000320: b2cd 99bd 11a1 c33d 1b8c da3b a947 8c3d
00000330: 65e5 033f 5709 133e 0b1c 773b 92e5 6a3e
00000340: 6dce 2b3e 2cb3 f4be 8a6c 343d 6d07 9e3e
00000350: d011 873c 9506 403e 4e0c 96bd 281a dbbc
00000360: e975 1cbe 7687 26bd b420 1d3e 3fbc 0bbf
00000370: 192a 04bf 600e b0be df88 df3e 39d5 a3bd
00000380: 91e6 623d e87b a93e f238 cabe c250 4d3d
00000390: 7b19 083f 8612 cabb 675c fc3c 01a8 e73e
000003a0: 5123 84bc c3bc ecbd 40cc 9b3d 82ac 9a3d
000003b0: 0e96 313e fa51 3c3d 617f 4d3e 3aed 1bbf
000003c0: 7095 ed3c 3786 ae3e e996 b33e 639c 403d
000003d0: 7a36 df3d 9e52 563e 51a0 b43d 1475 203f
000003e0: cffd 3abe 28df 8abb 83b2 b73d e750 a0bd
000003f0: 78bd 5f3e 0626 b93e 2650 3abf 74a6 0b3d
-0.006193012 -0.083482675 -0.050963398 0.03584438 -0.02997918 0.061008207 0.06987452 0.012857847
-0.0069892853 -0.02805686 -0.004469432 0.016088523 -0.06751553 -0.02112443 -0.07352151 0.054248773
-0.056288905 0.08074663 -0.022784814 -0.050635498 0.042466454 0.013176851 0.061205037 0.036899455
-0.08514798 0.055904783 -0.016644746 -0.039065093 0.056131355 0.06446429 -0.07768723 -0.007992372
0.07258508 0.03423164 0.07446448 -0.03029057 -0.04875876 0.07600599 0.036842294 0.08485127
-0.03691951 -0.056751225 -0.010360256 -0.08322469 0.034646034 0.06519421 0.021218233 -0.008733377
0.043823503 -0.05610462 0.08646529 -0.08788839 -0.08467119 -0.02088631 0.07219953 0.008849956
0.033945166 -0.064789265 0.032233976 -0.009876817 0.035428137 0.06242361 0.03842067 -0.007518679
-0.005444646 -0.055435423 -0.031970248 0.057438113 -0.03544342 0.05489268 -0.0350488 -0.020585544
0.0018811002 -0.08111093 -0.0008825585 -0.008909166 -0.007940486 -0.0176692 0.069683366 0.06522947
-0.059905842 0.041058756 -0.069330275 -0.075246885 0.027018718 0.0012989938 -0.041233726 -0.08525089
-0.03421832 0.029521666 -0.08181238 -0.08586623 0.011214055 -0.06367533 -0.077435285 -0.034054812
-0.0142306015 -0.08031895 -0.05901935 0.005795434 -0.08334771 -0.012423374 -0.057072595 -0.061274096
0.03473936 -0.068031594 -0.066983715 0.05040624 0.016525641 0.08049641 -0.023625806 -0.042692903
-0.00818003 0.0004471913 0.06740887 -0.08804186 -0.0062933117 0.039098777 -0.04867396 -0.044913724
0.042715244 -0.0846924 0.020944126 -0.06842907 0.043934472 -0.07557561 0.054341577 -0.083671294
-0.0742963 -0.040030636 -0.09164017 -0.11719259 0.20719248 0.1245252 0.15574844 -0.8961618
0.18425785 -0.11753587 -0.36586714 -0.31507808 0.38818038 -0.10936848 -0.6881028 -0.00056281866
-0.56375647 0.19467025 0.29656196 0.04933745 -0.10130264 -0.062962845 -0.09589355 0.59268564
0.14684057 -0.059844423 0.036158394 0.020237092 0.49816826 -0.035581023 0.22185259 -0.7014238
-0.30971286 -0.15800919 -0.1532994 0.06887869 0.058491364 0.18169841 0.1714188 0.20146637
-0.9999024 -0.020889059 0.24932519 0.3174027 0.16507143 -0.081554204 -0.079979375 0.24060303
0.09142828 0.1268959 0.08218839 -0.110610224 0.0024290152 -0.028536653 -0.09544202 0.05195361
-0.0078063533 -0.1028036 -0.070612535 0.20487583 0.11847952 -0.52625054 0.44612962 0.045953322
0.20789711 0.111212604 -0.05573604 0.021918416 0.06524692 0.034630526 0.16536376 -0.03337295
-0.075099364 0.09552205 0.006669534 0.068496056 0.51521903 0.14359032 0.0037705924 0.22939137
0.16777964 -0.47792947 0.044048823 0.3086504 0.016487986 0.18752511 -0.07326566 -0.02674587
-0.15279354 -0.04065653 0.15344507 -0.54584116 -0.51626736 -0.34385967 0.43659112 -0.07999653
0.055395667 0.33102345 -0.3949657 0.050125845 0.5316388 -0.006166759 0.03080578 0.45245364
-0.016130121 -0.11559441 0.07607317 0.075524345 0.17342398 0.045976616 0.20068122 -0.60908854
0.029001921 0.34086773 0.35076073 0.047024142 0.108990625 0.20929953 0.088196404 0.6267865
-0.18260883 -0.004238028 0.08969595 -0.07827931 0.2184962 0.36161822 -0.72778547 0.03409429

fc2.bias f4 [128]
00000000: 98dd 8b3c 596b 8dbf 229a 2040 cd4d 7bbf
00000010: 413b 6dbf 57d8 1940 6f8c 1040 1d2c 8d3b
00000020: 201b adbd 58ac 0f40 9f0a 353d c5eb 1f40
00000030: 866c 99bd 58ca 51bb 97ab 91bf f7a2 443d
00000040: cd46 87bf a0ca 52bf 6781 a4bd 68b6 673c
00000050: 3c88 69bf e9ce 74bf 04c9 62bf 43cb 473c
00000060: b657 edbe 7285 1c40 184e 1840 c735 69bf
00000070: 41c1 2240 02dd 73bf 1845 ba3c 638e 39bd
00000080: c97f 4dbf 8880 6fbf 5ef5 d13c 0446 4abf
00000090: 9c9c e8bc 3dfa 1d40 98c4 71bf a357 8abf
000000a0: 5b28 55bf ea94 1fbf e8c3 8ebf 8c81 e93c
000000b0: d0c9 93bf 781e 69bf a9d7 8fbf 14e9 1f40
000000c0: c142 90bf 4276 0a40 00a8 2440 5100 733d
000000d0: 8639 87bd 094e 85bf 76b6 943e a564 85bf
000000e0: a0fb 0ebf 7d1f 78bf 8eb2 7fbf 29a5 8bbf
000000f0: 330e 9bbf cba8 6abc c1ec 29bf 5c2f 3b3f
00000100: 4013 82bf abb9 46bf 2357 55bf a76b 873c
00000110: 7bb4 9c3d 6565 9cbd 8822 3a3d fc01 0140
00000120: 1532 83bf 9d76 82bd b293 2440 b991 1140
00000130: 6a9d 88bf 7283 1a40 eb50 7abf ab51 6dbf
00000140: ce19 583b 63ad 68bd 5815 db3f a7de e93c
00000150: fbde 97bf 2d5f 8ebf 2ffb 40bf cd94 1640
00000160: 96b9 97bf 2f60 82bf 2454 f63c 071e 37bf
00000170: 461d 61bf b3f9 80bf 0724 aabd 7067 183d
00000180: f72f 1c40 b414 0940 d620 9dbe 008e 88bf
00000190: 3782 1e40 5d29 77bf ed32 4dbf 292d 68bf
000001a0: a8c9 51be 69c3 0140 2fa1 6cbf 4251 7cbf
000001b0: 2985 11bd 0043 03bc 97cb 193f 8711 2240
000001c0: 76b1 47bf 7c6b 65bf a1e4 8f3c ec97 71bd
000001d0: 4690 483d 4c5e 6bbf d6ef 82bf 6309 4dbd
000001e0: 0fb8 0040 5606 1640 b19f fe3f 362c 0b40
000001f0: 1854 12bf d254 89bf d7d4 ce3c 3499 82bf
0.017073438 -1.1048385 2.5094075 -0.9816559 -0.9266854 2.4038293 2.2585714 0.004308237
-0.08452439 2.244894 0.044199582 2.4987652 -0.07491402 -0.0032011475 -1.138049 0.048006978
-1.0568482 -0.8234043 -0.08032494 0.01414261 -0.912235 -0.9562822 -0.88587976 0.012194457
-0.4635598 2.4456449 2.3797665 -0.9109768 2.5430453 -0.95259106 0.022738025 -0.045301806
-0.8027311 -0.935555 0.025629696 -0.79013085 -0.02839499 2.4683983 -0.94440603 -1.0807995
-0.832647 -0.623366 -1.1153536 0.028504156 -1.1545963 -0.91062117 -1.1237689 2.498601
-1.1270372 2.163468 2.572754 0.059326474 -0.066027686 -1.041444 0.29045457 -1.0421339
-0.558527 -0.9692305 -0.9988183 -1.0909778 -1.2113708 -0.01432247 -0.6637688 0.7311914
-1.0162125 -0.77627057 -0.83336085 0.016530825 0.076516114 -0.07636527 0.045443088 2.015746
-1.0249659 -0.0637028 2.5715146 2.2745192 -1.0673039 2.4142728 -0.9777972 -0.9270274
0.0032974365 -0.05680598 1.7115889 0.028548552 -1.1864923 -1.1122795 -0.75383276 2.352832
-1.1853511 -1.0185603 0.030069418 -0.71530193 -0.8793529 -1.0076202 -0.08307653 0.03720802
2.4404275 2.1418886 -0.30689114 -1.0668335 2.4766977 -0.9654749 -0.8015583 -0.9069391
-0.20487082 2.027552 -0.92433447 -0.9856149 -0.035527382 -0.0080115795 0.6007628 2.5323198
-0.7800516 -0.89617133 0.017565073 -0.058982775 0.048965715 -0.9194076 -1.0229442 -0.05005778
2.011234 2.3441367 1.9892484 2.1745734 -0.57159567 -1.072901 0.025247974 -1.0203004

fc3.weight f4 [21, 128]
00000000: 44ec 87bd 715b 34bf 2bda 463e 99dd 5fbf
00000010: f9d6 31be 5f7d 1c3e 05ae 043e ae4a 163e
00000020: de38 753d f860 233e 0b82 3abd 3d51 853e
00000030: 7a06 143d dfa5 b1bd f6ca 82bf 398e 153e
00000040: 68af 41bf 66c2 7ebe 771c 8c3d aace 603d
00000050: 01ab cfbe dd3d 22bf 74a9 a5be c012 413b
00000060: fbdb 063c ccba 973e a55f 503e fe6a 12bf
00000070: 0c5d 4b3e 5c7d 66be b9ca 1dbd c402 a8bc
00000080: 07cc 00be 4947 34be 6b69 4bbd f203 2abe
00000090: 771c 99bc fed1 8c3e 0ac8 76be d951 31bf
000000a0: 4092 02bf 6e06 a7bd e959 20bf f54e 89bc
000000b0: 911e 55bf ab16 02bf f4a0 37bf 6935 973e
000000c0: b737 4ebf 30ce 3a3f af81 4c3e 70a0 e53b
000000d0: 8090 2f3c 4739 f6be 8dbf 933e fa1e 31bf
000000e0: 04b1 20b9 af1d 70bf f178 64be f5f0 31bf
000000f0: b821 32bf e38f 143d 24d0 a4bd 0958 cbbd
00000100: 032a 8dbe f4ac f1bd 7525 21be c3b1 69bd
00000110: da61 0ebd 752a aa3d 0809 403d e026 7b3e
00000120: 193b 9cbe 88e7 0ebd 8881 533e 787f 673e
00000130: aa7f 50bf e138 6c3e e6c7 b3be eccc acbe
00000140: 64f9 b2bd eb58 ad3c 98f7 863f 5efc 363e
00000150: f9e3 54bf 581f 50bf 000f b6bd 2f46 723e
00000160: 854f 2ebf 4cde a3be 8048 c0bb c3d1 2abe
00000170: 47f6 b2be d506 97be 51d1 373d f4b8 04bd
00000180: efc9 893e 2c2a 023e 4da3 f63d 83e2 50bf
00000190: 557a 0a3e 3bec 0cbf 5ceb 32be 30b6 a1be
000001a0: 26a2 ff3d 8d21 643f 1ba3 16bf 36cb 26bf
000001b0: 9f63 60bd 8657 613d 79f4 933e a61f 823e
000001c0: 304e 39be 5539 07bf 2821 68bc 3e4f f23c
000001d0: 3ec2 7c3d 441f a9be ab75 8cbe 9b05 973d
000001e0: 15ca 873f 96bb 813e 2b29 8c3e 5c1e 4b3e
000001f0: 15e8 b6bc 5c4c 1cbf 9e3c 34bd f244 53bf
00000200: ae62 6c3d ebd2 2abf 80ee 943e 1119 37bf
00000210: 6cae 86be acf7 873e 1fbd 5c3e 86e1 73bc
00000220: 82a9 b6bc b679 193e 60e7 1f3c 84b7 753e
00000230: 7389 a43d 5270 063d e1cc 36bf ba38 293d
00000240: 6b71 2fbf f7e0 a2be 0076 063a 0060 a6bd
00000250: 3559 dfbe ef85 36bf 4a73 56be 4370 8c3d
00000260: e2fb e3bd 296d 6a3e c782 8a3e f7b5 f9be
00000270: 37a6 9b3e d128 07be 402f 28bb d7c9 88bd
00000280: a8e8 23be 72de 54be 1cd8 ac3c a7d4 bbbd
00000290: c0d6 a5bc 4aef 9f3e 04dc cdbe 516a 09bf
000002a0: 90be ebbe 8324 e1bd b509 04bf 66f1 943c
000002b0: 087a 3ebf b549 15bf c1aa 1cbf 7d19 433e
000002c0: 317b 1dbf d5a8 133f 45f7 313e 15a0 8ebd
000002d0: 4e70 0e3d 83ca 96be 20f5 8e3b 5e84 2cbf
000002e0: ddfc 1abe c00b 2bbf 474b 16be 9cb5 3abf
000002f0: 4b72 d3be e940 853d b092 47bd a925 fd3d
00000300: 7053 91be aeb4 8abe 3ece c8bd b730 9d3c
00000310: 3029 37bd 2037 3ebc ca1f 7a3d 2831 8f3e
00000320: 7140 96be c5b1 a5bd 3511 5a3e b3b2 7f3e
00000330: a1e4 29bf eb6d 843e 7e5c 4abe ca10 95be
00000340: ca25 523d d4b5 60bc b761 c33e b18a 47bd
00000350: 0084 35bf 2a45 32bf 6e03 ffbd 478b ad3e
00000360: 295e 09bf 3814 c6be 3012 dbbc fe49 19be
00000370: 7518 babe 7c5b 2ebe 0035 753d dea1 723d
00000380: f059 523e 5b80 153e 3cf7 fabd efca 2cbf
00000390: e331 723e 0b71 0ebf 2777 6fbe 4e80 aabe
000003a0: f84f 463c 1b0a 123f 87da f7be f411 0ebf
000003b0: b05a 6d3c b08b 70bd ddba 1b3e fef2 a73e
000003c0: d43d 08be 94d5 1dbf 3886 36bc 6ec1 6a3d
000003d0: 40cf 37bb 9cb5 7ebe 80f1 9bbe a646 353d
000003e0: d40b 1c3f dfcc 433e 7400 843e 22bf 523e
000003f0: b846 8ebd f028 e0be 274a 12bd a5bd 13bf
-0.06636861 -0.7045203 0.19419162 -0.87447506 -0.17367162 0.152822 0.12957008 0.14676926
0.059868686 0.1595496 -0.045534175 0.26038542 0.03613899 -0.086742155 -1.0218189 0.14605035
-0.75658274 -0.24878845 0.06841367 0.05488459 -0.40560153 -0.63375646 -0.32355845 0.0029460639
0.008231158 0.29634702 0.20348985 -0.5719451 0.19859713 -0.22508758 -0.03852341 -0.020509131
-0.1257783 -0.17605318 -0.04966108 -0.16603068 -0.01869033 0.2750396 -0.24099746 -0.69265515
-0.5100441 -0.08155523 -0.6263719 -0.016761282 -0.83249766 -0.5081584 -0.7172997 0.29532936
-0.80553764 0.7297087 0.19971345 0.007007651 0.010715604 -0.48090574 0.2885708 -0.6918789
-0.00015324733 -0.93795294 -0.2231176 -0.69508296 -0.695827 0.036270034 -0.08047512 -0.09928901
-0.27571115 -0.11800566 -0.15736945 -0.057054292 -0.034761287 0.08308879 0.046883613 0.24526548
-0.30513838 -0.034888774 0.20654881 0.22607219 -0.814448 0.23068573 -0.35113448 -0.33750093
-0.08738974 0.021160563 1.054431 0.17869708 -0.8316036 -0.81297827 -0.0888958 0.23659585
-0.6809009 -0.32005537 -0.0058680177 -0.1668158 -0.3495352 -0.294974 0.044877354 -0.032402948
0.26911876 0.127114 0.12042866 -0.8159563 0.13523228 -0.5504796 -0.17472595 -0.3158431
0.12482099 0.89113694 -0.5884263 -0.65153825 -0.054782506 0.05501511 0.28897455 0.2541477
-0.18096232 -0.52821857 -0.014168061 0.029578801 0.06170868 -0.33031666 -0.27433524 0.07374116
1.0608546 0.2533843 0.2737516 0.198358 -0.022327462 -0.61054015 -0.04400312 -0.8252708
0.057711296 -0.66728085 0.2908821 -0.71522623 -0.26304948 0.26556146 0.21556519 -0.014885312
-0.022297624 0.14987835 0.009759754 0.23995787 0.08034029 0.03282196 -0.7140637 0.041313864
-0.6853244 -0.3181226 0.00051292777 -0.08123779 -0.43622747 -0.71298116 -0.20942417 0.0685735
-0.11132027 0.22893204 0.270529 -0.4877164 0.3040025 -0.13199164 -0.0025662929 -0.06679123
-0.1600672 -0.20787981 0.021099143 -0.091714196 -0.020244002 0.3123725 -0.4020692 -0.5367785
-0.46043825 -0.10993292 -0.5157731 0.018181514 -0.74404955 -0.58315593 -0.6119805 0.19052692
-0.615161 0.5767949 0.17379482 -0.06964127 0.03477507 -0.2945138 0.0043627173 -0.67389476
-0.15135522 -0.66814804 -0.14677154 -0.72933364 -0.41298136 0.06506521 -0.048723876 0.12360699
-0.2838397 -0.27090973 -0.098049626 0.019188268 -0.044717014 -0.0116098225 0.061065473 0.2796719
-0.2934604 -0.080905475 0.21295626 0.24970512 -0.66364485 0.2586511 -0.19761845 -0.29114372
0.05130557 -0.013715226 0.38160488 -0.04871625 -0.7090454 -0.69636786 -0.12451826 0.33895323
-0.536593 -0.386873 -0.02674207 -0.14969632 -0.36346784 -0.17027086 0.059864998 0.0592364
0.20542121 0.14599745 -0.122541875 -0.6749715 0.23651843 -0.5564124 -0.23385297 -0.33301014
0.012104027 0.5704667 -0.4840891 -0.55496144 0.014486954 -0.058726966 0.15208001 0.32802576
-0.13304836 -0.6165402 -0.011140399 0.057313375 -0.0028047115 -0.24873966 -0.30457687 0.04425683
0.6095555 0.19121121 0.25781596 0.20580724 -0.06947082 -0.43781233 -0.03571525 -0.5771125

fc3.bias f4 [21]
00000000: 4a30 a93f 770d 893f 6abc f33e 8002 113f
00000010: c625 273f ffe6 233f 4953 2d3f 4984 3f3f
00000020: 8868 4d3f 20f8 a33f 2447 2a3f 8ba2 223f
00000030: e0a6 243f b647 323f 513e 103f f13a 263f
00000040: b833 1a3f a312 103f fe77 083f 7b15 dc3e
00000050: 2c97 123f
1.3217862 1.0707234 0.47604686 0.5664444 0.6529201 0.6402435 0.6770521 0.74811226
0.8023763 1.2810097 0.665148 0.6352927 0.6431713 0.6964067 0.5634509 0.6493369
0.60235167 0.5627844 0.53308094 0.42985138 0.5726192
