model_checkpoints/model_ep_1000.pth (torch, 83143 bytes, 6 tensors)

fc1.weight f4 [128, 7]
000000 80 73 39 bb 6e 9f 4f 3e 1e 46 9f be d4 6a 8e be
       -0.0028297603 0.20275661 -0.31108183 -0.27815878
000010 86 11 15 be a8 92 cf 3d 80 63 f5 bb fe 2d 09 3f
       -0.14557466 0.10135394 -0.007488668 0.53585804
000020 99 3d 11 3f 1f af 7d 3f 28 b5 24 3f 40 db 20 3f
       0.56734616 0.9909534 0.6433892 0.6283455
000030 31 c6 4a bd 23 71 93 be bd 9b f5 bc 74 68 6e 3d
       -0.049505416 -0.28797254 -0.029981488 0.058205083
000040 25 1e 59 3e 20 82 bf 3e dc 66 23 3e 07 25 71 3d
       0.21202905 0.37403965 0.15957206 0.058873203
000050 b0 54 92 3e 3a 0a fd 3e 35 b5 a5 3e f2 45 79 3f
       0.28580236 0.49421865 0.32364812 0.97372353
000060 c6 84 1e 3f 9a f5 35 3f f3 cd 36 3f f6 00 9e be
       0.61921346 0.71077883 0.71408004 -0.30860108
000070 a1 75 a0 3d 4f 2f 0b bf 71 32 f7 be af 0d cd 3d
       0.07834936 -0.5436906 -0.4828067 0.100123756
000080 dd ea bd 3e 8d 34 16 3e 91 a3 21 3e 8e 4d 0b bd
       0.3709325 0.14668484 0.15785052 -0.03400951
000090 b0 1f 88 3e 7c 51 08 3f e2 2c 0f 3f db fe 22 3f
       0.26586676 0.53249335 0.5592786 0.6367013
0000a0 42 76 33 3f ef 4e 2f 3e b0 82 e7 3d d7 f3 d3 3d
       0.7010232 0.17119955 0.113042235 0.10349243
0000b0 5c 4b 27 be 31 d8 04 be 70 55 7d be 87 7b 2a bf
       -0.16337341 -0.12973095 -0.24739623 -0.6659474
0000c0 b7 d5 31 bf 79 8f 2b bc c4 6a 6b 3e 64 5f 17 3e
       -0.6946673 -0.010471218 0.22989947 0.14782482
0000d0 0c 40 dc be 72 d4 fb bf c1 69 e1 bf 0c 8b 94 bf
       -0.43017614 -1.9674208 -1.7610399 -1.1604934
0000e0 57 64 de 3d 38 9c 8f 3e e2 3c 1b 3b 1e ff fa 3c
       0.10858982 0.28048873 0.0023687412 0.030639227
0000f0 d8 d5 cc be 72 2d 39 bf c9 15 4e bf 61 5c 7c 3e
       -0.400069 -0.7233497 -0.8050199 0.24644615
000100 db ba 1f 3f 41 9a 28 3f 05 97 39 3f 18 d8 35 3f
       0.62394494 0.6586037 0.7249606 0.7103286
000110 bf 05 ff 3e 54 2d 94 3e 26 05 bf bc 62 54 82 3e
       0.4980907 0.28940833 -0.023317885 0.25455004
000120 0e 51 1a 3f 72 13 43 3f 95 04 de 3e f4 7c db 3e
       0.6027993 0.76201546 0.4336287 0.4286877
000130 00 d1 f5 3d df 64 b6 bc 7f 38 d9 bd dd 90 d6 be
       0.12002754 -0.022264896 -0.10606479 -0.41907397
000140 8c d5 07 bf ce c7 f4 3e 30 76 dc 3e c2 c5 cf be
       -0.5306022 0.4780869 0.4305892 -0.40580565
000150 cd 7d ee 3d de 54 0f 3f 63 d1 86 3e 5d 0b 0d 3e
       0.11645088 0.5598887 0.26331624 0.13773866
000160 ce a6 c8 be 0d 82 8b bf af 3b 02 bf 7e 8e bc 3e
       -0.39189762 -1.0899063 -0.5087232 0.36827463
000170 1b 94 44 3f 73 78 69 3f 3f a7 ac 3e ec 58 c5 3e
       0.7678849 0.91199416 0.3372135 0.38544405
000180 da fe f8 3e a4 69 fa 3c 12 40 d5 bc d6 b0 58 be
       0.48631936 0.030567952 -0.026031528 -0.21161208
000190 74 31 e6 3e 6b 64 da 3e e1 ee 0a 3e 5e 18 f8 3d
       0.44959605 0.42654738 0.13567688 0.12114023
0001a0 1e d3 a1 be 23 14 f6 3d 67 91 46 bf 7a ba 04 bf
       -0.31606382 0.120155595 -0.77565616 -0.5184704
0001b0 50 9e ed bd 9f f1 42 3f 76 d9 4a 3f d9 56 5b 3f
       -0.11602461 0.76149935 0.7923807 0.85679394
0001c0 fd 1c db bc c1 b2 3b bd 71 a0 ff 3c 86 78 09 be
       -0.026747221 -0.04582477 0.031204434 -0.13424882
0001d0 3b ec 34 3e a0 3a d1 3e e3 8f 8b 3e 1b 18 f2 3d
       0.1766824 0.4086504 0.27258214 0.11821004
0001e0 e5 64 52 3f 29 89 e4 3e 68 00 46 3e 34 4c c9 be
       0.821852 0.44635895 0.19336092 -0.3931595
0001f0 a5 da a6 bf 72 e3 5c bf d7 9e 17 3d dc b1 b3 bd
       -1.3035475 -0.86284554 0.037016716 -0.08774158
000200 f6 bf d7 be d3 9b 63 bf 07 81 80 bf 66 93 02 bf
       -0.42138642 -0.88909644 -1.0039376 -0.5100616
000210 5a 0c d9 be 92 5b 3f 3e f0 14 18 be de bd 4d be
       -0.42392236 0.18687275 -0.14851737 -0.2009196
000220 02 58 69 bd ec d2 35 3f 06 8f 74 3f 32 7c 61 3f
       -0.056968696 0.71024966 0.95530736 0.8808013
000230 c9 94 32 3f ee ad c2 3f d6 4d df 3f 78 e6 8b 3f
       0.6975828 1.5209329 1.7445629 1.0929708
000240 bd ff 4c 3e b4 6f 21 be 48 64 df 3d 80 92 20 bb
       0.20019431 -0.15765268 0.10907799 -0.0024501383
000250 e8 5f 40 be 83 4b 94 be a2 1a b5 be a3 54 a3 be
       -0.18786585 -0.2896386 -0.35371882 -0.3190051
000260 94 02 9d bd ae 40 54 3e fb d3 d0 3e b5 f7 af 3e
       -0.07666507 0.20727798 0.40786728 0.34368673
000270 2c 89 99 3f 2d b8 07 3f 43 19 09 3f d3 d2 db 3c
       1.1994987 0.53015405 0.5355417 0.026833927
000280 14 66 24 be 4c df 8b 3d 23 a4 8b bf 6e f6 a4 bf
       -0.16054565 0.068297 -1.0909466 -1.2887704
000290 2c 4e 7e bf 01 77 8a be 4d 8a 7a be 09 1b 07 3f
       -0.9933803 -0.27043918 -0.2446682 0.5277563
0002a0 2a f3 f1 bc 32 76 00 3f 83 14 29 3f 21 e7 28 3f
       -0.029534895 0.5018035 0.66046923 0.65977675
0002b0 de a4 5e 3f 25 b4 5c 3f db e3 a0 3d d7 d6 ca 3e
       0.8697032 0.8621238 0.0785596 0.39617035
0002c0 63 d1 fd 3e 6f 90 39 3f 3c f6 9b 3f 0a 50 ed 3e
       0.49573812 0.72486013 1.218452 0.46350127
0002d0 f9 c1 a5 3e 26 19 4f be 63 2e 2a 3f c5 13 46 3f
       0.32374552 -0.20224437 0.6647703 0.77373916
0002e0 1e 8e 09 3f b8 94 21 3e 7d 06 38 be e8 c2 1a 3e
       0.5373248 0.15779388 -0.17971225 0.15113413
0002f0 f7 e1 09 be e5 3c 91 3e 42 a5 6b 3f f2 ce 14 3f
       -0.13465105 0.2836677 0.9204904 0.58128273
000300 86 44 54 be 8a a9 be be 50 61 87 bf b2 c0 28 bf
       -0.20729265 -0.37238723 -1.0576572 -0.6591903
000310 fa 39 b6 3d f2 a0 fd be ee ce 2b bf 35 cd fc be
       0.08897777 -0.49536854 -0.67112625 -0.4937531
000320 fd a6 c0 3e e2 c0 e3 3e be b1 f8 3d 33 da 84 be
       0.37627402 0.44483095 0.12143277 -0.25947723
000330 98 bc 60 be 17 73 87 3e 32 20 0b be e7 3a a3 3e
       -0.21946943 0.26454994 -0.135865 0.31880876
000340 7a f4 0b 3e 00 09 44 3d cb 27 6a 3d 35 eb 18 3f
       0.13667479 0.047860146 0.057166856 0.597339
000350 9f 2b ef 3e 6f 2a 82 3e 26 43 27 bf 54 06 81 bf
       0.46712968 0.25423 -0.65336835 -1.0080056
000360 95 b8 72 bf f8 77 99 bc 2e 71 ea 3e 2d 11 22 be
       -0.948129 -0.018733963 0.45789474 -0.15826865
000370 05 17 39 3e 13 b3 20 3f d3 ae a1 3e 38 57 98 3d
       0.18075188 0.62773246 0.31578693 0.07438511
000380 52 94 50 bc fa 5c b3 be 2f d3 f0 be 2d 13 09 be
       -0.012730675 -0.35031873 -0.4703612 -0.13386221
000390 ec b5 1a 3d 5f 5f c0 3c 43 7d 0f 3e 4b 76 f0 3e
       0.03777115 0.023482976 0.14012627 0.4696525
0003a0 71 f5 51 3f ef 19 b5 3f 20 45 99 3f 31 cc ae 3e
       0.8201514 1.4148539 1.197422 0.3414016
0003b0 d3 7d 51 3e 5f 06 f8 be 2e 84 07 bd 66 7e c4 3d
       0.20458154 -0.4844236 -0.03308504 0.09594421
0003c0 b0 2e 90 3e 09 3c da 3e 3b 03 a3 3e 2b 04 bc 3e
       0.2816062 0.42623928 0.31838402 0.3672193
0003d0 b6 65 9f 3e 49 26 bb be dd e8 8b 3e 33 06 a0 be
       0.31132287 -0.36552647 0.27326098 -0.3125473
0003e0 c0 b2 aa 3b e8 9a 83 bd 58 d7 4b be a0 9e 4c 3d
       0.005209297 -0.064260304 -0.19906366 0.049955964
0003f0 e9 e3 f6 3e 1c be c3 3e 3e a1 15 3f 4b c8 24 3f
       0.48220757 0.3823098 0.5844916 0.6436812

fc1.bias f4 [128]
000000 19 8d ab be b7 11 42 40 8e 2d 1e 40 0f a1 38 40
       -0.33506086 3.0323312 2.4715304 2.8848302
000010 19 46 7a be 50 6a 2e 40 54 b2 21 bf 3f 83 01 40
       -0.24440803 2.7252388 -0.6316273 2.0236356
000020 82 a9 36 bf 10 78 24 40 bd 7b eb 3f 3f 84 e9 3f
       -0.713524 2.569828 1.8397137 1.8243483
000030 59 66 80 bf 44 2d 2a 40 06 12 11 40 22 1f f3 3f
       -1.0031234 2.6590128 2.266725 1.8993876
000040 e5 5e 0a 40 e8 39 5d bf 25 da 25 bf 69 47 11 40
       2.162042 -0.8641648 -0.6478599 2.2699835
000050 83 3f 44 40 8a 78 8c be 1e 31 4c 40 9b b5 56 bf
       3.0663764 -0.27435714 3.1904979 -0.8387086
000060 61 96 2e 40 5a a6 19 40 20 8c 0d 3d 01 d4 f7 be
       2.7279284 2.4007783 0.03455746 -0.48403934
000070 97 3d f8 be e4 13 af be bb 64 35 bf 59 a8 d3 3f
       -0.4848449 -0.34194863 -0.7085683 1.6535751
000080 94 5b 19 40 29 22 3d 40 08 33 29 40 98 ce be be
       2.3962145 2.95521 2.6437397 -0.37266994
000090 dd fc 21 40 1c 06 38 40 74 c3 0d bf 11 68 44 bf
       2.5310585 2.875373 -0.5537636 -0.7672129
0000a0 2e c3 ff 3f ea 5c 1b 40 21 41 18 bf a3 9f a4 bf
       1.9981439 2.427546 -0.5947438 -1.2861217
0000b0 44 92 16 bf 7f df 28 40 aa 80 a6 3e 39 b1 39 40
       -0.58816934 2.638641 0.32520038 2.9014418
0000c0 94 5e 6a bf 12 a8 ea bd c0 6b b7 be f9 1b 27 40
       -0.91550565 -0.11457838 -0.35824394 2.6110823
0000d0 ca 93 8f 3f 29 bc 23 40 25 85 1d 40 84 a3 33 40
       1.1216977 2.5583594 2.4612515 2.8068552
0000e0 cd 36 9e be 19 53 20 40 98 9a 47 40 c4 a9 3c bf
       -0.30901185 2.5050719 3.1188107 -0.7369654
0000f0 b6 f2 4a bf 03 54 e0 3f d9 c7 2b bf 82 90 2e 40
       -0.792766 1.7525638 -0.6710182 2.72757
000100 c8 cc 87 bf 53 40 51 be 79 a5 04 bf 68 f8 bf be
       -1.0609369 -0.20434694 -0.5181499 -0.37494206
000110 be 6e c0 be c3 75 0c 40 49 89 17 bf d3 bf 0a 40
       -0.3758449 2.1946876 -0.59193856 2.167958
000120 39 3e 4b 40 12 90 01 40 cc c6 d2 be 79 28 28 40
       3.1756728 2.0244184 -0.41167295 2.6274703
000130 7c d9 d1 be 0b aa 26 bf 09 16 02 40 39 42 22 40
       -0.4098624 -0.65103215 2.032595 2.535292
000140 47 bd 34 40 24 51 d4 3f 88 89 c0 be a4 ea cc be
       2.8240526 1.6587262 -0.37604928 -0.40022767
000150 be f2 35 40 93 2b ba bf 83 41 14 40 f7 ad 22 3f
       2.8429408 -1.4544548 2.3164985 0.635467
000160 47 50 3d 40 29 5a fb 3f b6 1e a1 bf 04 42 f5 3f
       2.9580247 1.963689 -1.2587497 1.9160771
000170 8c 5b ea 3f 68 ab 1e 40 b5 5f 0f bf 4f 2f 50 40
       1.8309188 2.4792118 -0.5600541 3.2528875
000180 f2 72 30 bf b9 2c 39 40 a7 cd 0e 40 32 67 45 40
       -0.6892539 2.8933547 2.231302 3.0844235
000190 e3 b8 08 bf a8 15 22 bf 60 cb 33 40 44 57 79 bd
       -0.53407115 -0.63314295 2.809288 -0.06087424
0001a0 55 d8 37 40 8a 17 2b 40 59 a3 5b 40 31 41 a2 be
       2.8725789 2.6733117 3.431845 -0.31690362
0001b0 8b 2b 0d 40 a6 61 71 40 04 b3 86 bf e6 2e c5 3f
       2.2057827 3.771585 -1.0523381 1.5404937
0001c0 90 02 bd bd 46 d6 89 bf bf ce 53 bf 8e 1e 46 40
       -0.092290044 -1.0768516 -0.82737345 3.095615
0001d0 3f ed a5 3f de 78 a5 bf b9 fe 37 bf d1 5c 10 bf
       1.2963027 -1.2927511 -0.7187305 -0.56391627
0001e0 54 c1 ba be 41 98 58 40 de 10 48 bf 90 4d 59 40
       -0.36475623 3.3842928 -0.7815074 3.395359
0001f0 e9 c7 18 bf 3a 2a 91 bf e2 39 ce 3f 76 e4 40 40
       -0.5968004 -1.1341012 1.6111414 3.0139441

fc2.weight f4 [128, 128]
000000 c0 ee ca bb f7 f8 aa bd ff be 50 bd 8e d1 12 3d
       -0.006193012 -0.083482675 -0.050963398 0.03584438
000010 e6 96 f5 bc be e3 79 3d 5f 1a 8f 3d b8 a9 52 3c
       -0.02997918 0.061008207 0.06987452 0.012857847
000020 60 06 e5 bb 80 d7 e5 bc 50 74 92 bb 14 cc 83 3c
       -0.0069892853 -0.02805686 -0.004469432 0.016088523
000030 95 45 8a bd 24 0d ad bc 72 92 96 bd f6 33 5e 3d
       -0.06751553 -0.02112443 -0.07352151 0.054248773
000040 32 8f 66 bd 7d 5e a5 3d 38 a7 ba bc 2b 67 4f bd
       -0.056288905 0.08074663 -0.022784814 -0.050635498
000050 4e f1 2d 3d b8 e3 57 3c 22 b2 7a 3d e2 23 17 3d
       0.042466454 0.013176851 0.061205037 0.036899455
000060 10 62 ae bd 6a fc 64 3d 90 5a 88 bc b8 02 20 bd
       -0.08514798 0.055904783 -0.016644746 -0.039065093
000070 fe e9 65 3d db 05 84 3d 7c 1a 9f bd 70 f2 02 bc
       0.056131355 0.06446429 -0.07768723 -0.007992372
000080 7d a7 94 3d 7a 36 0c 3d d5 80 98 3d ee 23 f8 bc
       0.07258508 0.03423164 0.07446448 -0.03029057
000090 44 b7 47 bd 07 a9 9b 3d f2 e7 16 3d 81 c6 ad 3d
       -0.04875876 0.07600599 0.036842294 0.08485127
0000a0 ea 38 17 bd f9 73 68 bd 10 be 29 bc b5 71 aa bd
       -0.03691951 -0.056751225 -0.010360256 -0.08322469
0000b0 00 e9 0d 3d 8b 84 85 3d dc d1 ad 3c 70 16 0f bc
       0.034646034 0.06519421 0.021218233 -0.008733377
0000c0 46 80 33 3d f5 cd 65 bd b7 14 b1 3d d4 fe b3 bd
       0.043823503 -0.05610462 0.08646529 -0.08788839
0000d0 17 68 ad bd c4 19 ab bc 59 dd 93 3d 68 ff 10 3c
       -0.08467119 -0.02088631 0.07219953 0.008849956
0000e0 16 0a 0b 3d 3c b0 84 bd c6 07 04 3d 60 d2 21 bc
       0.033945166 -0.064789265 0.032233976 -0.009876817
0000f0 18 1d 11 3d e6 af 7f 3d fe 5e 1d 3d 40 5f f6 bb
       0.035428137 0.06242361 0.03842067 -0.007518679
000100 00 69 b2 bb 41 10 63 bd 3c f3 02 bd 3a 44 6b 3d
       -0.005444646 -0.055435423 -0.031970248 0.057438113
000110 1f 2d 11 bd 26 d7 60 3d 55 8f 0f bd 04 a3 a8 bc
       -0.03544342 0.05489268 -0.0350488 -0.020585544
000120 40 8f f6 3a 7d 1d a6 bd 80 5b 67 ba c0 f7 11 bc
       0.0018811002 -0.08111093 -0.0008825585 -0.008909166
000130 d0 18 02 bc 00 bf 90 bc 27 b6 8e 3d 07 97 85 3d
       -0.007940486 -0.0176692 0.069683366 0.06522947
000140 d4 5f 75 bd 3a 2d 28 3d 08 fd 8d bd 0a 1b 9a bd
       -0.059905842 0.041058756 -0.069330275 -0.075246885
000150 5c 56 dd 3c 00 43 aa 3a b2 e4 28 bd 05 98 ae bd
       0.027018718 0.0012989938 -0.041233726 -0.08525089
000160 82 28 0c bd 6c d7 f1 3c 40 8d a7 bd a2 da af bd
       -0.03421832 0.029521666 -0.08181238 -0.08586623
000170 28 bb 37 3c 36 68 82 bd 64 96 9e bd 0f 7d 0b bd
       0.011214055 -0.06367533 -0.077435285 -0.034054812
000180 78 27 69 bc 43 7e a4 bd 46 be 71 bd a0 e7 bd 3b
       -0.0142306015 -0.08031895 -0.05901935 0.005795434
000190 34 b2 aa bd 68 8b 4b bc f4 c4 69 bd 8c fa 7a bd
       -0.08334771 -0.012423374 -0.057072595 -0.061274096
0001a0 dc 4a 0e 3d 26 54 8b bd c2 2e 89 bd c6 76 4e 3d
       0.03473936 -0.068031594 -0.066983715 0.05040624
0001b0 c8 60 87 3c 4d db a4 3d e8 8a c1 bc c1 de 2e bd
       0.016525641 0.08049641 -0.023625806 -0.042692903
0001c0 88 05 06 bc 00 75 ea 39 a9 0d 8a 3d 4a 4f b4 bd
       -0.00818003 0.0004471913 0.06740887 -0.08804186
0001d0 20 38 ce bb 0a 26 20 3d 59 5e 47 bd 74 f7 37 bd
       -0.0062933117 0.039098777 -0.04867396 -0.044913724
0001e0 2e f6 2e 3d 36 73 ad bd 04 93 ab 3c 8a 24 8c bd
       0.042715244 -0.0846924 0.020944126 -0.06842907
0001f0 a2 f4 33 3d 63 c7 9a bd 46 95 5e 3d db 5b ab bd
       0.043934472 -0.07557561 0.054341577 -0.083671294
000200 a9 28 98 bd d2 bb 20 bd 47 8e 47 be 92 6e ee bd
       -0.0742963 -0.03924162 -0.19487868 -0.11642183
000210 25 dc 5d 3e ba 39 91 bc 47 a8 30 3e 1b 90 5c bf
       0.2166601 -0.017727721 0.17251693 -0.8615739
000220 e6 dc 4f 3e f8 18 fb bd 55 a3 fe be fb ed f9 be
       0.2029911 -0.12260622 -0.49733987 -0.48814377
000230 e9 f4 cd 3e ed be e2 bd ff e6 4c bf 12 e0 93 bb
       0.40225914 -0.110715725 -0.8003997 -0.0045127952
000240 2b c1 2d bf 11 d7 53 3e 65 09 bd 3e 58 32 37 3d
       -0.67872876 0.2068751 0.3692123 0.044725746
000250 70 aa cd bd aa f2 80 bd a6 bd c5 bd 8f d7 21 3f
       -0.10042274 -0.062962845 -0.09655313 0.6321954
000260 56 a6 9a bb c1 0b 72 bd 34 a9 2b 3d 87 d2 df 3c
       -0.004719536 -0.05909324 0.04190941 0.027322067
000270 74 e4 02 3f 68 bd 11 bd bb b7 85 3e c8 00 69 bf
       0.5112984 -0.035581023 0.26116738 -0.9101682
000280 ce b6 af be 79 79 21 be cf e1 88 be 45 10 8d 3d
       -0.34319156 -0.15768994 -0.26734778 0.06887869
000290 ba cc 76 3d 31 31 47 3c a9 4b 4f 3e ca 99 70 3e
       0.060253836 0.012157724 0.20243706 0.23496166
0002a0 81 52 5d bf 23 df c5 bc 4b 26 89 3e 8c 2c af 3e
       -0.86454016 -0.024154251 0.26787028 0.34213674
0002b0 51 08 32 3e 84 15 a6 bd 2e a6 c7 be 87 db 8d 3d
       0.17385985 -0.081095725 -0.38993973 0.06926637
0002c0 10 85 c8 3d 34 ae 07 3e 63 52 a8 3d 79 d2 e2 bd
       0.09791005 0.13250047 0.08218839 -0.11075301
0002d0 b5 3c f6 3b 25 c7 e0 bc 1b 0b c6 bd cd 0b 56 3d
       0.007514561 -0.02743871 -0.09670087 0.052257348
0002e0 70 cc ff bb 50 b7 d3 bd c9 7b 8f bd 4b d9 6f 3e
       -0.0078063533 -0.103376985 -0.07006032 0.23422734
0002f0 6b dd 08 3e 24 dc 2a bf 70 e9 ef 3e d4 e8 87 bd
       0.13365714 -0.6674216 0.46857786 -0.06636205
000300 8f 0f 62 3e af f0 f1 3d 3b c2 0b bd 40 8e b3 3c
       0.22076248 0.11813485 -0.03412078 0.021918416
000310 2d a0 85 3d a3 1c 18 3d a8 89 3c 3e 76 b7 51 be
       0.06524692 0.037136685 0.18411887 -0.20480141
000320 f4 bd 97 bd c8 47 cb 3d d3 7f 66 3c 23 57 3d bd
       -0.074092776 0.099258006 0.014068562 -0.04622568
000330 aa 0c 09 3f ca 8c 24 3e 4f 2a 5d bd 73 1e db 3d
       0.5353495 0.16069332 -0.053995427 0.10699167
000340 8b ed 10 3c 4e e3 ee be 8a 6c 34 3d 98 24 a4 3e
       0.008845697 -0.46657795 0.044048823 0.3205917
000350 62 10 8a 3c 3d 22 4e 3e 75 76 82 be 9a 2d 1c be
       0.016853515 0.20130248 -0.25481 -0.1525177
000360 00 86 1d be 04 7b f0 bd 95 7d 26 3e e0 77 1a bf
       -0.15383148 -0.11742213 0.16258843 -0.60339165
000370 3a 92 1d bf 23 d0 b8 be cf 1b e2 3e af 0b a4 bd
       -0.6155125 -0.36096296 0.4416184 -0.08010041
000380 a1 0b a2 3d e8 7b a9 3e 4e 9d d9 be 09 db 52 3d
       0.07912374 0.33102345 -0.42502826 0.05147842
000390 d9 4f 0a 3f 01 85 2d 3b 6c a9 00 3d e1 94 c1 3e
       0.5402809 0.0026476982 0.031411573 0.37808898
0003a0 17 56 81 bc 72 b8 e9 bd d9 09 a0 3d 82 ac 9a 3d
       -0.015788121 -0.11412133 0.07814378 0.075524345
0003b0 0e 96 31 3e 0d 2b 4a 3d ae 62 57 3e 25 a4 4d bf
       0.17342398 0.049357463 0.21033737 -0.8032859
0003c0 70 95 ed 3c 84 d0 b6 3e 96 3f ba 3e 99 78 40 3d
       0.029001921 0.3570596 0.36376637 0.04699001
0003d0 77 0c ec 3d 57 8b 62 3e 53 da cf 3d 56 b6 24 3f
       0.11525815 0.22123466 0.10149064 0.6434072
0003e0 4c b2 34 be a0 73 97 ba 13 62 c8 3d 06 e5 9d bd
       -0.1764614 -0.0011554845 0.09784331 -0.077096984
0003f0 bf f7 7c 3e fa 89 c2 3e e3 f4 66 bf 85 4f 0d 3d
       0.24703883 0.37995893 -0.9021742 0.034499664

fc2.bias f4 [128]
000000 98 dd 8b 3c 48 0a 92 bf f7 47 4a 40 c5 28 81 bf
       0.017073438 -1.1409388 3.1606424 -1.0090567
000010 bd fb 79 bf 01 c4 45 40 bd 23 3c 40 fd dd 90 3a
       -0.9764975 3.0900881 2.9396813 0.0011052486
000020 20 1b ad bd 2b 53 3a 40 9f 0a 35 3d d2 04 48 40
       -0.08452439 2.9113262 0.044199582 3.1252942
000030 86 6c 99 bd 58 ca 51 bb 56 67 99 bf a6 b5 76 3d
       -0.07491402 -0.0032011475 -1.1984661 0.060231827
000040 13 d0 90 bf 09 cf 62 bf 67 81 a4 bd 68 b6 67 3c
       -1.1313499 -0.8859716 -0.08032494 0.01414261
000050 15 49 76 bf 7b d8 80 bf 23 01 6f bf 43 cb 47 3c
       -0.96205264 -1.0066065 -0.9336111 0.012194457
000060 13 1c 03 bf 7e ce 43 40 5c bd 42 40 03 a7 77 bf
       -0.5121471 3.0594783 3.0428076 -0.96739215
000070 f8 b2 4d 40 81 1d 80 bf 18 45 ba 3c 63 8e 39 bd
       3.2140484 -1.0009004 0.022738025 -0.045301806
000080 31 44 5e bf da df 7e bf 5e f5 d1 3c 28 a2 57 bf
       -0.868228 -0.9956032 0.025629696 -0.84231806
000090 9c 9c e8 bc b8 ea 43 40 f6 30 80 bf 13 94 90 bf
       -0.02839499 3.061201 -1.0014942 -1.1295189
0000a0 90 6a 62 bf ff 6e 30 bf e7 bc 96 bf 8c 81 e9 3c
       -0.8844385 -0.68919367 -1.1776398 0.028504156
0000b0 a4 6d 9a bf 4c e9 76 bf 3d 8d 95 bf 0f 4f 46 40
       -1.206471 -0.9644973 -1.1683728 3.0985754
0000c0 9f a2 96 bf fa 11 2e 40 e8 f1 4d 40 51 00 73 3d
       -1.1768378 2.7198472 3.2178898 0.059326474
0000d0 86 39 87 bd 4c a2 8a bf a9 3e b7 3e 8f e6 8b bf
       -0.066027686 -1.0830779 0.35789993 -1.0929736
0000e0 18 3c 19 bf 7b 0e 83 bf f2 5b 86 bf 97 7c 92 bf
       -0.5985732 -1.0238794 -1.049681 -1.1444272
0000f0 b4 55 a1 bf cb a8 6a bc 41 28 38 bf 8e 64 b7 3f
       -1.260428 -0.01432247 -0.7193642 1.4327562
000100 b6 03 88 bf 78 de 56 bf 30 75 64 bf a7 6b 87 3c
       -1.0626132 -0.8393321 -0.89241314 0.016530825
000110 7b b4 9c 3d 65 65 9c bd 88 22 3a 3d 56 8c 1e 40
       0.076516114 -0.07636527 0.045443088 2.4773154
000120 ff be 89 bf 9d 76 82 bd d8 72 4e 40 48 4d 35 40
       -1.0761412 -0.0637028 3.2257595 2.8328419
000130 44 45 8e bf 2a 4b 40 40 2d 8e 83 bf a0 7e 79 bf
       -1.1114888 3.0045877 -1.0277764 -0.9745884
000140 ce 19 58 3b 47 c6 05 3f 34 ad 0b 40 2e 14 79 3d
       0.0032974365 0.5225567 2.1824465 0.06081026
000150 15 c4 9e bf cc 6b 92 bf dc ad 51 bf 4c d6 3f 40
       -1.240359 -1.1439147 -0.81905913 2.9974546
000160 ea f3 9f bf 89 d6 8c bf 24 54 f6 3c 8f 39 46 bf
       -1.2496312 -1.1002971 0.030069418 -0.7743158
000170 db b7 77 bf 26 9f 87 bf 07 24 aa bd 70 67 18 3d
       -0.96764916 -1.0595443 -0.08307653 0.03720802
000180 a5 6b 44 40 93 7f 34 40 4d 5b a7 be 12 02 90 bf
       3.06907 2.8202865 -0.32686844 -1.1250632
000190 4c ec 4b 40 45 96 82 bf bf ac 5b bf 6a 48 79 bf
       3.1862974 -1.0202109 -0.85810465 -0.9737612
0001a0 af ae 66 be c0 93 20 40 ea 20 7a bf 8a ac 84 bf
       -0.22527574 2.509018 -0.9770647 -1.0365155
0001b0 29 85 11 bd 00 43 03 bc 67 41 2f 3f 6e 9d 4a 40
       -0.035527382 -0.0080115795 0.6845917 3.1658587
0001c0 57 ca 55 bf 36 95 72 bf a1 e4 8f 3c ec 97 71 bd
       -0.8351187 -0.9475893 0.017565073 -0.058982775
0001d0 46 90 48 3d e5 87 7c bf 96 0f 89 bf 63 09 4d bd
       0.048965715 -0.9864486 -1.0707881 -0.05005778
0001e0 45 a5 19 40 bd fc 39 40 11 b5 1b 40 9d 57 34 40
       2.4007123 2.906051 2.4329264 2.8178475
0001f0 e0 84 20 bf 4b e1 8f bf d7 d4 ce 3c 5d 17 88 bf
       -0.6270275 -1.1240629 0.025247974 -1.063213

fc3.weight f4 [21, 128]
000000 44 ec 87 bd 1c ff 22 bf ca 96 8e 3e 56 28 74 bf
       -0.06636861 -0.63670516 0.27849418 -0.9537405
000010 38 43 4b be 97 bd 73 3e 42 a2 66 3e 91 7f 0e 3e
       -0.1984986 0.23802792 0.22522834 0.1391585
000020 de 38 75 3d 60 92 7d 3e 0b 82 3a bd 25 50 af 3e
       0.059868686 0.24762869 -0.045534175 0.34240833
000030 7a 06 14 3d df a5 b1 bd c7 41 68 bf d2 5e 0d 3e
       0.03613899 -0.086742155 -0.9072537 0.13805702
000040 33 44 22 bf 48 67 8d be 77 1c 8c 3d aa ce 60 3d
       -0.63385314 -0.2761786 0.06841367 0.05488459
000050 1e b3 dc be 96 e2 2c bf 99 b3 b7 be c0 12 41 3b
       -0.43105406 -0.6753324 -0.3587921 0.0029460639
000060 60 36 a4 bb 9e b2 c3 3e b3 88 92 3e 98 87 1a bf
       -0.005011365 0.38222212 0.28619918 -0.6036315
000070 7b 83 8f 3e c4 a0 81 be b9 ca 1d bd c4 02 a8 bc
       0.2803 -0.25317967 -0.03852341 -0.020509131
000080 12 e9 16 be 11 68 4e be 6b 69 4b bd a1 76 40 be
       -0.14737347 -0.20156886 -0.04966108 -0.18795253
000090 77 1c 99 bc ae 2a b6 3e de 61 89 be c8 cb 47 bf
       -0.01869033 0.35579437 -0.2683248 -0.7804532
0000a0 94 e4 09 bf ff 44 cd bd 64 60 42 bf f5 4e 89 bc
       -0.5386441 -0.100229256 -0.7592833 -0.016761282
0000b0 98 15 63 bf bf dc b4 be af cd 49 bf bc ca bf 3e
       -0.88704824 -0.35324666 -0.78829473 0.37459362
0000c0 0f 1f 33 bf 7d 66 58 3f ea 31 8e 3e 70 a0 e5 3b
       -0.69969267 0.84531385 0.27772456 0.007007651
0000d0 80 90 2f 3c 14 eb 14 bf 7d 29 94 3e 81 31 3e bf
       0.010715604 -0.581712 0.28937903 -0.74294287
0000e0 26 87 65 bc da 85 84 bf a2 5b 80 be 6a 9d 3d bf
       -0.014009273 -1.0353348 -0.2506991 -0.7406832
0000f0 f1 0e 47 bf e3 8f 14 3d 23 b0 cc bd ef 30 09 3d
       -0.77757174 0.036270034 -0.09994533 0.033493932
000100 af 2e 9b be 3f ba 0f be fa a8 39 be c3 b1 69 bd
       -0.30309054 -0.14035891 -0.18130866 -0.057054292
000110 da 61 0e bd 75 2a aa 3d 08 09 40 3d ee 0c ab 3e
       -0.034761287 0.08308879 0.046883613 0.33408302
000120 68 45 ab be 88 e7 0e bd b8 48 91 3e 53 b0 a5 3e
       -0.3345139 -0.034888774 0.28375793 0.32361087
000130 a4 1d 56 bf 02 42 a6 3e a4 5e c5 be 1e 7f be be
       -0.8363898 0.32472235 -0.38548768 -0.37206358
000140 64 f9 b2 bd 4b f0 5b 3f 02 b4 99 3f 4f 77 34 3e
       -0.08738974 0.8591353 1.2008059 0.17623638
000150 0c 03 6a bf 1e a3 46 bf 68 59 dc bd 69 31 a3 3e
       -0.914109 -0.7759265 -0.107592404 0.31873634
000160 6f 33 53 bf 0c 36 21 be 80 48 c0 bb b4 0e 43 be
       -0.82500356 -0.15743273 -0.0058680177 -0.19048578
000170 58 24 38 be 2a b6 a5 be 51 d1 37 3d f4 b8 04 bd
       -0.17982614 -0.32365543 0.044877354 -0.032402948
000180 9a 3d b1 3e 65 31 66 3e ef 22 eb 3d d0 af 2f bf
       0.3461731 0.2247978 0.114812724 -0.68627644
000190 cf ce 55 3e e7 de c7 be 88 79 4e be 47 29 b0 be
       0.20879672 -0.39037248 -0.20163548 -0.34406492
0001a0 6c ab ef 3d a9 d7 85 3f 5b b9 f7 be be bd 30 bf
       0.11702618 1.0456439 -0.48383602 -0.69039524
0001b0 9f 63 60 bd 86 57 61 3d 87 9d 96 3e f3 5c aa 3e
       -0.054782506 0.05501511 0.2941706 0.3327404
0001c0 e7 1c 53 be a3 d2 0e bf 28 21 68 bc 3e 4f f2 3c
       -0.20616494 -0.55790156 -0.014168061 0.029578801
0001d0 3e c2 7c 3d 74 50 b1 be 45 54 9a be 9b 05 97 3d
       0.06170868 -0.34631693 -0.30142418 0.07374116
0001e0 5a 9e 9a 3f d0 58 b4 3e 5f 15 b8 3e 98 e7 9a 3e
       1.2079575 0.3522401 0.35953805 0.30254817
0001f0 95 b3 16 bd fa 2c 23 bf 9e 3c 34 bd 81 8a 47 bf
       -0.036792357 -0.63740504 -0.04400312 -0.77945715
000200 ae 62 6c 3d a6 2e 22 bf f1 cf bd 3e d1 fd 25 bf
       0.057711296 -0.6335243 0.3707271 -0.6484042
000210 66 62 92 be 29 d1 af 3e 0b 15 a1 3e 8c 3a c3 bb
       -0.28590697 0.34339264 0.31461367 -0.005957907
000220 82 a9 b6 bc 16 35 70 3e 60 e7 1f 3c 2e ca a0 3e
       -0.022297624 0.2345775 0.009759754 0.3140425
000230 73 89 a4 3d 52 70 06 3d 66 12 19 bf f6 64 61 3d
       0.08034029 0.03282196 -0.597937 0.055027924
000240 47 aa 0c bf 59 cf a8 be 00 76 06 3a 00 60 a6 bd
       -0.5494732 -0.32970694 0.00051292777 -0.08123779
000250 2b 62 e0 be f6 63 3f bf 03 1e 6d be 43 70 8c 3d
       -0.43824896 -0.74761903 -0.2315598 0.0685735
000260 83 45 fa bd fb cf 9e 3e c3 44 b1 3e c6 67 02 bf
       -0.122202896 0.31018052 0.34622774 -0.50939596
000270 d3 35 c1 3e 42 c3 1d be 40 2f 28 bb d7 c9 88 bd
       0.37736377 -0.15406516 -0.0025662929 -0.06679123
000280 10 88 38 be 33 91 69 be 1c d8 ac 3c 5d 99 f3 bd
       -0.18020654 -0.22809295 0.021099143 -0.11894486
000290 c0 d6 a5 bc 65 cb c5 3e d2 5b d4 be 73 58 38 bf
       -0.020244002 0.3863174 -0.41476303 -0.7200996
0002a0 30 d2 ee be 80 d2 00 be 7f 1a 43 bf 66 f1 94 3c
       -0.46644735 -0.125803 -0.76212305 0.018181514
0002b0 75 88 52 bf 38 ee cc be b0 b0 16 bf 6e b7 85 3e
       -0.82239467 -0.40025496 -0.58863354 0.26116508
0002c0 ba 36 06 bf bc 8a 3a 3f 04 f1 75 3e 15 a0 8e bd
       -0.52427256 0.7286794 0.24017721 -0.06964127
0002d0 4e 70 0e 3d 51 90 96 be 02 a0 f5 3c 93 54 3e bf
       0.03477507 -0.2940698 0.029983524 -0.743478
0002e0 66 f1 25 be a3 db 2a bf b0 8e 2e be 75 0f 48 bf
       -0.16205367 -0.6674139 -0.17046618 -0.78148586
0002f0 8d d3 16 bf e9 40 85 3d c3 ca 6c bd 95 a5 a0 3e
       -0.5891655 0.06506521 -0.057810556 0.3137633
000300 3e 56 a0 be bd 26 93 be bf 1e f1 bd b7 30 9d 3c
       -0.31315798 -0.28740492 -0.117734425 0.019188268
000310 30 29 37 bd 20 37 3e bc ca 1f 7a 3d 11 de c0 3e
       -0.044717014 -0.0116098225 0.061065473 0.37669423
000320 9f 62 a6 be c5 b1 a5 bd be 2e 8e 3e c0 69 b8 3e
       -0.32497117 -0.080905475 0.27770036 0.3601818
000330 83 32 41 bf ef 87 b8 3e 35 8b 60 be 09 c4 a7 be
       -0.754677 0.3604121 -0.21928103 -0.3276675
000340 ca 25 52 3d c4 63 72 3f 64 16 24 3f ce 17 11 bd
       0.05130557 0.9468348 0.64096665 -0.035423093
000350 75 5c 65 bf 77 3a 32 bf ba 41 14 be 3b a2 d3 3e
       -0.89594203 -0.6962046 -0.14478198 0.4133471
000360 39 35 4d bf 43 75 49 be 30 12 db bc 75 f5 31 be
       -0.80159336 -0.19673638 -0.02674207 -0.1737879
000370 cf 64 24 be 15 63 46 be 00 35 75 3d de a1 72 3d
       -0.1605408 -0.19373734 0.059864998 0.0592364
000380 f3 1a 8a 3e b3 a4 7e 3e 3f ee 06 be 88 f8 0a bf
       0.26973686 0.24867515 -0.13176821 -0.5428548
000390 01 af 96 3e 17 50 be be fc 5a 7e be ed 51 b0 be
       0.29430392 -0.3717048 -0.24839395 -0.34437504
0003a0 b1 85 09 3c f7 81 4a 3f 9b 29 c7 be 4e 7a 14 bf
       0.008393691 0.7910456 -0.3889893 -0.5799912
0003b0 b0 5a 6d 3c b0 8b 70 bd 06 90 2b 3e a3 ed ca 3e
       0.014486954 -0.058726966 0.1675416 0.39634427
0003c0 a4 9f 1e be 1b 45 1f bf 38 86 36 bc 6e c1 6a 3d
       -0.15490586 -0.6221482 -0.011140399 0.057313375
0003d0 40 cf 37 bb 1d 5a 3d be 32 6c ad be a6 46 35 3d
       -0.0028047115 -0.18491407 -0.3387161 0.04425683
0003e0 7b 1f 5d 3f 02 04 9c 3e 28 73 ae 3e ec 70 a8 3e
       0.8637616 0.30471808 0.34072232 0.32898653
0003f0 32 84 b8 bd 8e 4b 08 bf 27 4a 12 bd 4a 9e 10 bf
       -0.09009589 -0.5324029 -0.03571525 -0.5649153

fc3.bias f4 [21]
000000 1f 64 bf 3f b8 db af 3f 45 0c 39 3f 1e 5b 52 3f
       1.495243 1.3738928 0.72284347 0.82170284
000010 9d 53 6d 3f 4e 9f 5f 3f db 5e 67 3f 48 42 74 3f
       0.9270571 0.87352455 0.9037911 0.9541364
000020 c4 3f 82 3f 9c 45 b9 3f 34 7f 5a 3f 94 6a 51 3f
       1.017571 1.4474368 0.85350347 0.8180325
000030 05 3a 51 3f 47 40 61 3f a8 26 3f 3f eb 62 53 3f
       0.81729156 0.87988704 0.7466836 0.8257281
000040 fe dd 40 3f 9a f5 3b 3f 3f b9 2c 3f d4 cc 1a 3f
       0.75338733 0.73421633 0.67470163 0.6046879
000050 30 ba 44 3f
       0.768466
